UnivAiBlog/covid19_ml_education/models/150-50-focal.pth (torch_old, 145150 bytes, 52 tensors)

embeds.0.weight f4 [3, 3]
-0.00205022 -0.000954165 -0.010758101 -0.010873423 0.0031799094 4.9363494e-05 -0.010923212 0.0056531047
0.012076264
00000000: fc5c 06bb ee20 7aba bf42 30bc 7126 32bc
00000010: 0766 503b a60b 4f38 46f7 32bc ae3d b93b
00000020: 86db 453c

embeds.1.weight f4 [3, 3]
0.0026086469 -0.008040764 -0.019487979 0.0070848526 -0.008793899 0.005988766 0.022720346 0.013645743
-0.0077663995
00000000: d5f5 2a3b 69bd 03bc 41a5 9fbc 0d28 e83b
00000010: 4914 10bc 693d c43b 0520 ba3c 6592 5f3c
00000020: 487d febb

embeds.2.weight f4 [3, 3]
0.0076515083 -0.0152838575 -0.017638892 0.011059368 -0.010741052 -0.0024859672 0.019742152 0.01537111
-0.0059128585
00000000: 81b9 fa3b 2569 7abc 707f 90bc 5a32 353c
00000010: 3dfb 2fbc 9ceb 22bb 4bba a13c 1cd7 7b3c
00000020: a7c0 c1bb

embeds.3.weight f4 [3, 3]
-0.0047756955 -0.0024694903 -0.006919077 -0.0050882483 -0.005977431 -0.0034749631 -0.008445831 0.0116265295
-0.004686666
00000000: 707d 9cbb 2cd7 21bb 6db9 e2bb 52bb a6bb
00000010: 53de c3bb 35bc 63bb 6260 0abc 337d 3e3c
00000020: 9b92 99bb

embeds.4.weight f4 [3, 3]
0.0019023127 -0.0028522569 -0.0065406878 0.0019978783 0.0057786703 -0.006334584 0.010709404 0.01526682
0.0039716335
00000000: 0657 f93a eeec 3abb 4453 d6bb d6ee 023b
00000010: 005b bd3b 5892 cfbb 7f76 2f3c af21 7a3c
00000020: 7a24 823b

embeds.5.weight f4 [3, 3]
0.008852069 -0.0030457876 0.0040478352 -0.0129453335 0.002075513 0.003974136 -0.012751123 0.014129565
0.002420574
00000000: 4508 113c d69b 47bb b4a3 843b aa18 54bc
00000010: 5405 083b 7839 823b 16ea 50bc b17f 673c
00000020: 7ea2 1e3b

layers.0.weight f4 [150, 19]
-0.16703972 -0.026355779 -0.027715664 0.10806895 -0.004699314 -0.11762032 -0.047218923 -0.10237397
-0.009862241 0.19741677 -0.0653881 0.21218956 0.2119798 0.18701833 -0.1556137 -0.1425794
0.17994544 -0.04881666 0.20808977 0.053817373 -0.074381314 0.072538905 0.1884272 0.120948225
-0.1398125 -0.19637473 -0.12955248 0.2198869 0.20425251 0.16870856 0.14978027 0.10947479
-0.022993652 0.20152526 0.15773001 0.15210468 -0.11218194 0.061364297 0.20982856 -0.069683954
0.025251297 -0.22043239 0.11262165 -0.06413416 0.06788259 -0.15453468 0.111732036 -0.062796004
0.16952926 -0.17074282 0.1732534 -0.059651535 -0.005221986 0.16395357 -0.0529805 -0.17775956
-0.21484114 -0.0532953 0.06453417 0.14780293 -0.012526431 0.033924434 -0.06310272 0.046462324
-0.07133474 -0.04766881 -0.0727358 -0.013729866 -0.19957599 -0.024473945 0.095690496 0.09536281
-0.0037151987 0.0317335 -0.08269653 0.10930945 0.17796044 -0.13910665 0.1518018 -0.12357319
-0.05816212 0.16174386 -0.16213214 0.10548515 0.11253706 0.09416807 0.13212074 -0.13545305
-0.0027319228 -0.18357037 0.068071716 -0.13264671 -0.14580755 0.074039586 -0.11121604 0.10477455
-0.06732173 -0.13015713 0.09430545 -0.09407871 0.19081837 -0.024446335 0.16819751 0.10271917
0.06809451 -0.12309491 0.10887806 -0.01651761 0.034575153 0.120452605 -0.14668882 -0.12407634
0.19251353 0.09826173 0.029628066 -0.19947663 0.123518124 -0.09610646 0.19963022 0.1661905
-0.058108844 -0.14144346 0.17763323 0.17808795 -0.1532173 -0.21965656 0.0639169 -0.016182456
0.054204684 0.15441194 -0.15580674 -0.17932668 0.00014613064 0.2057355 -0.15320814 -0.15098193
0.19987771 0.062554665 -0.1869882 -0.22670463 0.099989094 -0.13819866 -0.09932231 0.09854038
-0.060311608 0.09839668 -0.18235184 -0.024342919 0.16609418 0.0983072 -0.102459334 -0.16615143
-0.17262743 -0.18988872 -0.16963463 0.11290263 0.16552655 0.13623753 0.027787667 0.17228046
-0.22973184 -0.13216397 0.03529646 0.077039875 0.054267842 0.11243331 -0.14200486 -0.20451942
-0.1695144 0.010183687 0.1670741 0.19787358 0.09078043 -0.08073567 -0.017620238 -0.1218035
-0.19751231 -0.15615714 0.19395366 -0.14251642 -0.119655855 -0.18265778 -0.1350458 -0.055380613
-0.17326312 -0.2058847 0.18540993 -0.1173046 0.09247082 0.11829097 -0.15017313 0.1191325
-0.21211451 0.07609625 0.21912377 -0.114469305 -0.21433273 0.12465799 0.09932276 -0.12740307
-0.18124855 0.14782818 0.080135524 0.19275846 -0.0008302404 0.057745855 0.10863169 -0.04930693
-0.116791606 0.21137884 0.05569103 -0.20215757 -0.17103201 -0.21581106 -0.22910717 0.17868868
-0.22145468 -0.18226749 0.017283035 -0.16744265 0.20555048 -0.013220065 -0.13213885 -0.14853467
-0.11262565 0.21764338 -0.20055784 -0.02031662 -0.06813357 0.017198874 0.0043153344 0.2123536
-0.22204675 0.07065072 -0.020263847 0.13713832 -0.16986544 0.10417037 0.1949471 0.12511852
-0.054543953 -0.120914385 -0.07497968 -0.22563374 -0.011862864 -0.08377064 0.03724226 0.1534424
-0.08527681 0.07428561 -0.07256331 -0.12481761 0.18891077 -0.040169194 0.14562525 -0.08323833
00000000: 760c 2bbe 13e8 d7bc f60b e3bc 4153 dd3d
00000010: b4fc 99bb ece2 f0bd a168 41bd 72a9 d1bd
00000020: 3d95 21bc 9f27 4a3e 32ea 85bd 3848 593e
00000030: 3c11 593e bc81 3f3e 3359 1fbe 5600 12be
00000040: 9e43 383e faf3 47bd 7c15 553e 9b6f 5c3d
00000050: 3b55 98bd 478f 943d 0ff3 403e b4b3 f73d
00000060: 022b 0fbe 7516 49be 68a9 04be 082a 613e
00000070: 9227 513e f0c1 2c3e 0060 193e 5234 e03d
00000080: 2f5d bcbc a35c 4e3e fa83 213e 54c1 1b3e
00000090: a5bf e5bd 2159 7b3d 4cdd 563e 76b6 8ebd
000000a0: cfdb ce3c 07b9 61be 2ea6 e63d c558 83bd
000000b0: 0706 8b3d 573e 1ebe c4d3 e43d 319b 80bd
000000c0: 1499 2d3e 35d7 2ebe 5769 313e 2b55 74bd
000000d0: 321d abbb 72e3 273e 1502 59bd 9a06 36be
000000e0: 51ff 5bbe 2c4c 5abd 7e2a 843d a759 173e
000000f0: a93b 4dbc 59f4 0a3d 003c 81bd 474f 3e3d
00000100: f317 92bd 5f40 43bd 82f6 94bd 3bf3 60bc
00000110: a65d 4cbe 957d c8bc 61f9 c33d 944d c33d
00000120: b17a 73bb fdfa 013d cc5c a9bd a2dd df3d
00000130: 433b 363e f971 0ebe ee71 1b3e f113 fdbd
00000140: 673b 6ebd 2fa0 253e f805 26be 9908 d83d
00000150: d579 e63d 30db c03d a94a 073e 34b4 0abe
00000160: 0f0a 33bb dff9 3bbe 2f69 8b3d 8ad4 07be
00000170: 934e 15be 11a2 973d 3cc5 e3bd 0a94 d63d
00000180: fadf 89bd e947 05be 3723 c13d 57ac c0bd
00000190: e465 433e ae43 c8bc f83b 2c3e 6e5e d23d
000001a0: 2275 8b3d 2f19 fcbd 76fb de3d f04f 87bc
000001b0: ad9e 0d3d dbaf f63d 9835 16be bc1b febd
000001c0: 4422 453e 723d c93d 8fb6 f23c 9a43 4cbe
000001d0: 12f7 fc3d 77d3 c4bd dd6b 4c3e d82d 2a3e
000001e0: 8a03 6ebd 8ed6 10be 7ce5 353e b05c 363e
000001f0: ffe4 1cbe a6ed 60be dde6 823d 1291 84bc
00000200: bb05 5e3d 2a1e 1e3e cd8b 1fbe 6aa1 37be
00000210: a53a 1939 54ac 523e 98e2 1cbe 029b 1abe
00000220: beac 4c3e a91c 803d d679 3fbe 4225 68be
00000230: 15c7 cc3d f383 0dbe 7f69 cbbd 8acf c93d
00000240: 4e09 77bd 3384 c93d 71ba 3abe cd6a c7bc
00000250: 9814 2a3e 4955 c93d 33d6 d1bd 9a23 2abe
00000260: 3fc5 30be 3072 42be b3b4 2dbe 7e39 e73d
00000270: cb7f 293e da81 0b3e f6a2 e33c 4a6a 303e
00000280: d33e 6bbe fe55 07be 0593 103d 15c7 9d3d
00000290: f547 5e3d 6f43 e63d b969 11be 8a6d 51be
000002a0: 2f95 2dbe 7bd9 263c 7915 2b3e 5f9f 4a3e
000002b0: 17eb b93d be58 a5bd 5158 90bc 1d74 f9bd
000002c0: ab40 4abe a8e7 1fbe ca9b 463e d3ef 11be
000002d0: 210e f5bd a40a 3bbe 7249 0abe c8d6 62bd
000002e0: e36b 31be 70d3 52be 1adc 3d3e 653d f0bd
000002f0: 5761 bd3d 8942 f23d fcc6 19be bdfb f33d
00000300: 8c34 59be 5ad8 9b3d fb61 603e e26e eabd
00000310: 0a7a 5bbe b04c ff3d bb69 cb3d f375 02be
00000320: 3899 39be 4560 173e 181e a43d 7962 453e
00000330: 7da4 59ba eb86 6c3d 4b7a de3d 10f6 49bd
00000340: 7030 efbd b273 583e 471c 643d 6502 4fbe
00000350: 0423 2fbe 93fd 5cbe 129b 6abe 2afa 363e
00000360: 04c5 62be 54a4 3abe 2795 8d3c 1676 2bbe
00000370: d37b 523e f998 58bc 684f 07be 7919 18be
00000380: 47a8 e6bd e8dd 5e3e 095f 4dbe 0a6f a6bc
00000390: 9d89 8bbd a7e4 8c3c a667 8d3b 3973 593e
000003a0: 3960 63be 53b1 903d 5e00 a6bc fd6d 0c3e
000003b0: 35f1 2dbe 4657 d53d 36a0 473e 121f 003e
000003c0: 7b69 5fbd f6a1 f7bd f28e 99bd 880c 67be
000003d0: 755c 42bc f18f abbd 578b 183d 0120 1d3e
000003e0: 9ca5 aebd 0e23 983d 139c 94bd 60a0 ffbd
000003f0: d371 413e 7488 24bd c91e 153e dc78 aabd

layers.0.bias f4 [150]
0.13783038 -0.03473928 -0.21619128 -0.05507301 -0.22318932 -0.023595953 -0.13074508 0.036192127
-0.036386997 0.15970308 0.1767214 -0.0263358 -0.16397998 -0.062316444 0.21469282 -0.18132283
-0.01883699 -0.09363759 -0.23113315 -0.19475502 -0.019706704 0.17367733 -0.08186568 -0.024345875
-0.18654269 0.15799585 0.18011318 0.08065377 0.050906718 0.05409103 -0.1471276 -0.17575894
0.15793326 0.07035974 -0.052061528 -0.13285896 0.048193227 0.1787192 0.13270761 -0.1428435
0.06999244 0.1753761 0.101791516 0.10601852 -0.17849703 0.1354129 -0.12506056 -0.019999271
-0.17707786 0.20726508 -0.017895 0.20364282 0.004540116 -0.22165968 -0.01433683 -0.16726601
-0.12733842 0.15935151 0.18468213 -0.014002173 -0.08692562 0.047818653 -0.06536434 0.028843844
0.017219208 0.15646343 -0.17435007 0.16787553 0.13375087 -0.15435618 -0.17378232 0.1964447
0.18524407 -0.0043303315 -0.1439676 -0.16572271 -0.05052961 -0.04089143 0.1409256 0.20161955
0.12723307 -0.011477092 0.22758235 0.061742105 0.19155133 -0.15364517 0.10036383 0.12736398
-0.20113729 0.063073374 -0.036161758 -0.11503938 -0.19248772 -0.037087683 -0.013140875 0.0871233
0.16300987 0.17698829 0.0134222675 -0.078549385 0.1565641 0.18321492 0.10520023 0.12305373
-0.13956034 -0.047163375 -0.06535207 -0.11779464 0.21097152 0.17775978 -0.060891006 -0.051121727
0.1357596 0.01646808 -0.049419884 0.16132763 -0.12557174 0.023021422 -0.16057506 -0.07399542
0.0859169 -0.23081344 -0.21205261 -0.11072071 0.17304921 -0.05292464 -0.114560835 0.17406318
-0.04148336 0.121306546 0.026723595 -0.063759364 -0.16162099 -0.10059376 0.1409288 -0.10376893
0.024225188 0.2078309 -0.17304702 0.18486665 -0.081621066 -0.06193742 0.15080597 0.032161012
-0.19460143 0.116388425 -0.031525172 0.17801465 -0.19234675 0.052631725
00000000: 6823 0d3e c64a 0ebd 3f61 5dbe 3d94 61bd
00000010: be8b 64be 4d4c c1bc 0ae2 05be 323e 143d
00000020: 880a 15bd 3489 233e 74f6 343e 2dbe d7bc
00000030: 5eea 27be 873f 7fbd 6fd8 5b3e b1ac 39be
00000040: 0850 9abc 11c5 bfbd 2bae 6cbe dc6d 47be
00000050: f46f a1bc 78d8 313e 32a9 a7bd 0071 c7bc
00000060: 0c05 3fbe aac9 213e 976f 383e ce2d a53d
00000070: 9083 503d 8e8e 5d3d 9ea8 16be 27fa 33be
00000080: 42b9 213e c418 903d 783e 55bd 2e0c 08be
00000090: 4366 453d 2a02 373e 81e4 073e 9145 12be
000000a0: 3258 8f3d cb95 333e 1278 d03d 3d20 d93d
000000b0: edc7 36be aea9 0a3e e00f 00be 83d5 a3bc
000000c0: e653 35be 4c3d 543e 8998 92bc be87 503e
000000d0: 41c5 943b c1fa 62be 06e5 6abc c847 2bbe
000000e0: 0165 02be 0b2d 233e 501d 3d3e 5f69 65bc
000000f0: 0f06 b2bd 7edd 433d bddd 85bd ed49 ec3c
00000100: 4c0f 8d3c f337 203e d388 32be 90e7 2b3e
00000110: fdf5 083e 8c0f 1ebe fef3 31be cd28 493e
00000120: 9fb0 3d3e 74e5 8dbb 3e6c 13be 37b3 29be
00000130: 23f8 4ebd c67d 27bd cd4e 103e 5b75 4e3e
00000140: 6349 023e 6a0a 3cbc 590b 693e 4ae5 7c3d
00000150: 0826 443e 2955 1dbe 8d8b cd3d b46b 023e
00000160: eff6 4dbe 9d2c 813d 5a1e 14bd c499 ebbd
00000170: 801b 45be 41e9 17bd d34c 57bc b36d b23d
00000180: 0fec 263e 6b3c 353e 12e9 5b3c 80de a0bd
00000190: 5752 203e b19c 3b3e 3873 d73d 9803 fc3d
000001a0: e8e8 0ebe 622e 41bd 4ed7 85bd 513e f1bd
000001b0: eb08 583e a906 363e d968 79bd 0465 51bd
000001c0: 9104 0b3e 11e8 863c 816c 4abd 1233 253e
000001d0: e195 00be 6c97 bc3c ca6d 24be e98a 97bd
000001e0: 33f5 af3d 5c5a 6cbe 5224 59be 8ac1 e2bd
000001f0: d033 313e 82c7 58bd df9e eabd 9e3d 323e
00000200: 75ea 29bd 916f f83d 71eb da3c 4594 82bd
00000210: f97f 25be 1a04 cebd a44f 103e ce84 d4bd
00000220: e773 c63c a0d1 543e 3d33 31be af4d 3d3e
00000230: f228 a7bd 18b2 7dbd e16c 1a3e 44bb 033d
00000240: 9945 47be 0e5d ee3d 8a20 01bd 7949 363e
00000250: 8cf6 44be 5d94 573d

layers.2.weight f4 [150]
0.99076897 0.9930222 0.9956969 0.98975337 0.9911935 0.9920166 0.99671304 0.9913971
0.9993235 0.99981135 0.9924722 0.99892 0.99671304 0.99269396 0.9976855 0.99671304
0.9940716 1.0022568 0.9994056 1.0038308 0.99459255 0.9976292 0.99558574 0.9939171
0.99671304 0.9998183 0.9937311 0.99974895 0.99878234 0.99640924 0.99671304 0.99418133
0.9994844 0.9959683 0.9994841 0.993592 0.9956032 0.99959415 0.99652797 0.9975092
1.0005587 0.9927206 0.99816185 0.99825364 0.99671304 0.99474245 1.0028183 0.991365
0.9956793 0.99813807 0.9987078 0.9936433 1.002203 0.99804914 0.9976461 0.99671304
0.9930247 0.9952761 1.0025809 0.99531615 0.99671304 0.992308 0.99730474 0.99343914
0.99593675 0.9996896 0.99671304 0.9912358 0.9910752 0.9973949 0.9967816 0.9981927
1.0006608 1.0024569 0.9887511 0.99452347 0.9909587 0.99782157 0.995471 0.98897165
0.9976109 0.9929425 1.002313 0.9921314 0.9924243 1.0018831 0.99680597 1.0035076
0.99671304 0.99513495 0.99960405 0.9973225 0.9970225 0.9952067 1.0006237 0.99758875
1.0021664 1.0018383 1.0007336 0.9966104 1.0022222 0.99610096 1.0010675 0.9912648
0.99617404 0.99705034 0.99540013 0.99671304 0.99365497 0.9986285 0.99671304 0.9967781
0.9910805 0.99086213 0.99671304 1.0016952 1.0014967 0.9939328 0.9994495 0.9989512
0.99698865 0.9900871 1.0006608 0.9969548 0.99932665 0.9996713 0.9995691 0.99755436
0.9993541 0.99469 0.9929774 0.9956916 0.9944433 0.99153334 0.99249405 1.0003943
0.9972391 0.9962538 1.0017288 0.9972146 0.9944978 1.0029898 0.99826956 0.9958868
0.9990705 1.0004634 0.9987716 1.0006897 0.9992556 0.99176824
00000000: 09a3 7d3f b436 7e3f fee5 7e3f 7a60 7d3f
00000010: dbbe 7d3f cdf4 7d3f 9628 7f3f 33cc 7d3f
00000020: aad3 7f3f a3f3 7f3f a812 7e3f 39b9 7f3f
00000030: 9628 7f3f 3121 7e3f 5168 7f3f 9628 7f3f
00000040: 7a7b 7e3f f349 803f 0cd9 7f3f 877d 803f
00000050: 9e9d 7e3f a164 7f3f b5de 7e3f 5a71 7e3f
00000060: 9628 7f3f 18f4 7f3f 2965 7e3f 8cef 7f3f
00000070: 33b0 7f3f ad14 7f3f 9628 7f3f ab82 7e3f
00000080: 36de 7f3f c7f7 7e3f 31de 7f3f 0c5c 7e3f
00000090: dadf 7e3f 67e5 7f3f 751c 7f3f c35c 7f3f
000000a0: 4f12 803f f022 7e3f 8987 7f3f 8d8d 7f3f
000000b0: 9628 7f3f 71a7 7e3f 5a5c 803f 19ca 7d3f
000000c0: d7e4 7e3f fa85 7f3f 50ab 7f3f 685f 7e3f
000000d0: 3048 803f 2680 7f3f bc65 7f3f 9628 7f3f
000000e0: de36 7e3f 6aca 7e3f 9254 803f 0acd 7e3f
000000f0: 9628 7f3f e607 7e3f 5d4f 7f3f 0752 7e3f
00000100: b6f5 7e3f a8eb 7f3f 9628 7f3f a1c1 7d3f
00000110: 1bb7 7d3f 4655 7f3f 142d 7f3f 8f89 7f3f
00000120: a715 803f 8250 803f cb1e 7d3f 1799 7e3f
00000130: 78af 7d3f 3c71 7f3f 30d7 7e3f 3f2d 7d3f
00000140: 6e63 7f3f 7b31 7e3f cb4b 803f 53fc 7d3f
00000150: 850f 7e3f b53d 803f ad2e 7f3f f072 803f
00000160: 9628 7f3f 2ac1 7e3f 0de6 7f3f 8750 7f3f
00000170: de3c 7f3f dec5 7e3f 7014 803f fa61 7f3f
00000180: fd46 803f 3d3c 803f 0a18 803f dc21 7f3f
00000190: d148 803f 7900 7f3f fb22 803f 88c3 7d3f
000001a0: 4305 7f3f b13e 7f3f 8bd2 7e3f 9628 7f3f
000001b0: 2c60 7e3f 1ea6 7f3f 9628 7f3f d92c 7f3f
000001c0: 74b7 7d3f 24a9 7d3f 9628 7f3f 8c37 803f
000001d0: 0b31 803f 6172 7e3f ecdb 7f3f 44bb 7f3f
000001e0: a63a 7f3f 5976 7d3f a715 803f 6e38 7f3f
000001f0: dfd3 7f3f 75ea 7f3f c3e3 7f3f b95f 7f3f
00000200: acd5 7f3f 01a4 7e3f c433 7e3f a5e5 7e3f
00000210: d693 7e3f 21d5 7d3f 1714 7e3f ec0c 803f
00000220: 104b 7f3f 7d0a 7f3f a638 803f 7549 7f3f
00000230: 6897 7e3f f861 803f 988e 7f3f 70f2 7e3f
00000240: 16c3 7f3f 2f0f 803f 7faf 7f3f 9a16 803f
00000250: 37cf 7f3f 86e4 7d3f

layers.2.bias f4 [150]
-0.0025794248 0.0033191245 -0.0029172704 -0.00031534498 0.0035655217 -0.0037875634 0.00421785 -0.0063031605
0.004657082 -0.0063718343 -0.0003602632 -0.001584073 0.0004804024 -0.00084226415 0.000626966 -0.0041490323
-0.0033149149 0.0021814248 -0.0031347454 -0.003047074 0.004698747 0.0018330264 0.00092903955 0.0021379937
-0.0047328984 0.0015698988 -0.00022835722 0.004828025 0.003673707 0.00026505077 0.0030658173 0.0035248308
0.007898009 0.003437284 -0.0032232285 0.0007341867 -0.00048212762 -0.0012003853 0.0046036746 0.00061570265
0.00023474063 -0.004186918 -0.007437688 0.0016924205 0.0034997566 0.00222464 -0.0063680983 0.0024720908
-0.0004554051 0.0026300626 -0.001777333 0.007729173 0.0033081928 -0.0022235445 0.000162633 -0.0030432895
-0.0018285816 -0.0023999086 -0.0013551532 -0.002256811 -0.0019792938 0.0029815882 -0.0005452912 -0.0023867968
0.0024478582 0.00072958105 0.006947284 0.0026272489 -0.0043120976 0.0027978674 0.0019783375 0.0061140265
-0.0015462145 -0.0026604508 0.0041576233 -0.00560137 -0.0029376585 0.0031371124 -0.00011733063 -0.0008613874
0.005630014 0.00039985616 0.00090924616 0.0042391783 0.005454068 0.0033343728 0.0034710253 0.0014677964
-0.0019341502 -0.0048989067 0.00529653 0.00092705723 0.00966874 -0.0019523425 -0.0022654026 0.004975562
0.0006114127 -0.0010604551 -0.00010579644 -0.0015349026 -0.0013247757 0.0016698812 -0.0031494973 0.001905064
0.0028131772 -0.0017295813 -0.0030961982 -0.0033237594 0.0018483934 -0.0014322116 0.0027452735 -0.00023344772
-0.010286707 -0.0015177736 -0.0030618887 -0.0012363493 0.004105817 0.002697662 0.002447449 -0.0031805125
0.0026579485 -0.004022003 0.001458512 0.00071890873 0.0026493445 0.0036443016 0.009349943 0.0030915178
0.00056542514 0.00054482237 0.005202528 0.0029085702 0.0031583705 -0.004357743 0.0023741967 -0.0065374766
-0.002245248 0.00057453715 -0.0041832044 0.0015574835 -0.0030858 0.0047554765 0.0019994713 0.0016984167
0.0039144396 0.005697325 -0.0005444973 0.0036006162 -0.003536764 0.0016227482
00000000: 910b 29bb ab85 593b ad2f 3fbb e354 a5b9
00000010: 87ab 693b c538 78bb e435 8a3b be8a cebb
00000020: 6f9a 983b d2ca d0bb b5e1 bcb9 aba0 cfba
00000030: 85de fb39 64cb 5cba fa5a 243a 9bf4 87bb
00000040: 0b3f 59bb 3cf6 0e3b 4d70 4dbb 6bb1 47bb
00000050: f2f7 993b 2942 f03a ca8a 733a 951d 0c3b
00000060: 6e16 9bbb 10c5 cd3a 2d73 6fb9 6934 9e3b
00000070: 93c2 703b 83f6 8a39 e1eb 483b d900 673b
00000080: a766 013c 0e44 613b cd3c 53bb 6f76 403a
00000090: 13c6 fcb9 3f56 9dba 6cda 963b 1b67 213a
000000a0: b524 7639 6a32 89bb d9b7 f3bb 35d4 dd3a
000000b0: 2c5c 653b 44cb 113b 7bab d0bb cd02 223b
000000c0: 70c3 eeb9 215d 2c3b 66f5 e8ba 0145 fd3b
000000d0: 44ce 583b e3b8 11bb 7788 2a39 ed71 47bb
000000e0: 04ad efba c947 1dbb 659f b1ba 01e7 13bb
000000f0: 0ab7 01bb c066 433b dff1 0eba ce6b 1cbb
00000100: 3f6c 203b 5b41 3f3a 0ba6 e33b ec2d 2c3b
00000110: 7f4c 8dbb 6d5c 373b ffa6 013b 2c58 c83b
00000120: 59aa caba f55a 2ebb ac3c 883b b28b b7bb
00000130: bb85 40bb 0398 4d3b 670f f6b8 bbce 61ba
00000140: fb7b b83b c9a3 d139 7a5a 6e3a cee8 8a3b
00000150: 0ab8 b23b 7e85 5a3b 247a 633b 1363 c03a
00000160: 5083 fdba 0287 a0bb 848e ad3b c205 733a
00000170: a369 1e3c bee5 ffba 2677 14bb 0a0a a33b
00000180: 3647 203a f8fe 8aba 08df ddb8 c92e c9ba
00000190: 19a4 adba eadf da3a cc67 4ebb 57b3 f93a
000001a0: 485d 383b 1eb3 e2ba 96e9 4abb 6ed3 59bb
000001b0: ca45 f23a 0cb9 bbba 0cea 333b a5c9 74b9
000001c0: 9489 28bc 08f0 c6ba f8a9 48bb 000d a2ba
000001d0: 178a 863b 42cb 303b 6165 203b 2570 50bb
000001e0: fa30 2e3b 02cb 83bb 8b2b bf3a 2675 3c3a
000001f0: a0a0 2d3b 3cd5 6e3b 8130 193c 109b 4a3b
00000200: 0a39 143a 69d2 0e3a f879 aa3b b69d 3e3b
00000210: aafc 4e3b 66cb 8ebb 6998 1b3b 5438 d6bb
00000220: 0325 13bb 899c 163a 4313 89bb 7924 cc3a
00000230: 223b 4abb d4d3 9b3b 9009 033b 689d de3a
00000240: b344 803b a0b0 ba3b 98bc 0eba 51f8 6b3b
00000250: 0ec9 67bb 65b2 d43a

layers.2.running_mean f4 [150]
0.17373703 0.008840189 0.01631477 0.023087785 0.0008935916 0.029380932 0.0 0.0816738
0.053552665 0.16057368 0.17735046 0.0009387418 0.0 0.014578012 0.22261348 0.0
0.03254155 0.05498941 0.010730513 0.00028303373 0.038898896 0.18566543 0.024118112 0.043277122
0.0 0.15801167 0.18710075 0.12860712 0.058970936 0.095565625 0.0 0.017976854
0.1527113 0.07283143 0.0002589922 0.026643245 0.080273956 0.2101098 0.1365071 0.0030272682
0.07091026 0.17536636 0.13284856 0.1043218 0.0 0.16129777 0.00232365 0.017550504
0.022611761 0.2033466 0.08151432 0.2068227 0.07044994 0.017260106 0.031129917 0.0
0.03658922 0.16123812 0.18226111 0.0005502786 0.0 0.09653575 0.004819335 0.06497361
0.078343056 0.16408035 0.0 0.18272302 0.13636343 0.00531203 0.012107041 0.2013583
0.18479754 0.04148936 0.0027616136 0.008450831 0.054570034 0.0018044285 0.16841364 0.20563157
0.13301194 0.032471363 0.24152458 0.068261914 0.20388103 0.0063541024 0.14004298 0.15664248
0.0 0.12421273 0.019156007 0.0301277 0.024544258 0.06995371 0.032907225 0.08425772
0.19137934 0.18337554 0.059826385 0.018457424 0.1517755 0.18562298 0.13334085 0.14715162
0.023684148 0.024605256 0.06304999 0.0 0.20525506 0.18143068 0.0 0.007658259
0.1370947 0.0325619 0.0 0.1626247 0.02152457 0.033245128 0.00959887 0.0051832213
0.111684196 4.4317057e-05 0.019955613 0.004249808 0.17543921 0.021367539 0.034355745 0.1680457
0.061129704 0.12542066 0.023426736 0.023743434 0.021179875 0.04566755 0.16914493 0.0021433814
0.01993062 0.20688432 0.003227561 0.21057762 0.03847882 0.00018807396 0.1524287 0.05649738
0.0016555475 0.15163292 0.03529893 0.1980829 0.011867841 0.087556705
00000000: 1fe8 313e 71d6 103c 8da6 853c 9822 bd3c
00000010: eb3f 6a3a 48b0 f03c 0000 0000 9844 a73d
00000020: 0a5a 5b3d 6d6d 243e 5c9b 353e e515 763a
00000030: 0000 0000 9dd8 6e3c caf4 633e 0000 0000
00000040: 4a4a 053d 933c 613d 09cf 2f3c 2564 9439
00000050: 7354 1f3d 141f 3e3e 5993 c53c 5a43 313d
00000060: 0000 0000 d0cd 213e 5797 3f3e 96b1 033e
00000070: 828b 713d e9b7 c33d 0000 0000 3244 933c
00000080: 5a60 1c3e a528 953d 58c9 8739 ef42 da3c
00000090: ac66 a43d 0627 573e 84c8 0b3e 2265 463b
000000a0: 6639 913d 3d93 333e 7409 083e aba6 d53d
000000b0: 0000 0000 3e2b 253e 6148 183b 13c6 8f3c
000000c0: 4d3c b93c 173a 503e fbf0 a63d 54c9 533e
000000d0: 0f48 903d 1165 8d3c 2b04 ff3c 0000 0000
000000e0: 94de 153d 9b1b 253e a8a2 3a3e 9240 103a
000000f0: 0000 0000 89b4 c53d 83eb 9d3b e210 853d
00000100: 5372 a03d ae04 283e 0000 0000 be1b 3b3e
00000110: dba2 0b3e 8a10 ae3b 9c5c 463c df30 4e3e
00000120: 913b 3d3e bff0 293d 30fc 343b 5b75 0a3c
00000130: d484 5f3d 9382 ec3a a074 2c3e 1591 523e
00000140: 4834 083e b100 053d 3852 773e e7cc 8b3d
00000150: 30c6 503e 1336 d03b 6d67 0f3e e366 203e
00000160: 0000 0000 3e63 fe3d 0fed 9c3c 5ece f63c
00000170: 0a11 c93c e443 8f3d bac9 063d 508f ac3d
00000180: f2f8 433e ccc6 3b3e 830c 753d 0634 973c
00000190: 096b 1b3e f313 3e3e 818a 083e eaae 163e
000001a0: 4205 c23c f690 c93c 5a20 813d 0000 0000
000001b0: 622e 523e f7c8 393e 0000 0000 22f2 fa3b
000001c0: 8e62 0c3e a05f 053d 0000 0000 1787 263e
000001d0: 4c54 b03c 0b2c 083d 9444 1d3c 03d8 a93b
000001e0: afba e43d 14e1 3938 f479 a33c f941 8b3b
000001f0: 56a6 333e fa0a af3c 9cb8 0c3d 2c14 2c3e
00000200: 2463 7a3d 466e 003e 6de9 bf3c 9781 c23c
00000210: 6b81 ad3c e60d 3b3d 5434 2d3e f977 0c3b
00000220: 8a45 a33c 7cd9 533e 7d85 533b a9a1 573e
00000230: f89b 1d3d b835 4539 4516 1c3e cc69 673d
00000240: f5fe d83a a945 1b3e 9c95 103d 3ed6 4a3e
00000250: 5571 423c ee50 b33d

layers.2.running_var f4 [150]
0.027346788 0.0003828304 0.002873757 0.0019069995 4.780615e-05 0.0022970883 1.3689089e-07 0.011489404
0.007167101 0.011890988 0.012687284 1.45175645e-05 1.3689089e-07 0.0009830649 0.023065701 1.3689089e-07
0.002844531 0.009866112 0.0016747792 7.3781985e-06 0.0036758306 0.024777178 0.00286879 0.0047428375
1.3689089e-07 0.008238444 0.016339159 0.021476964 0.0031404446 0.012845701 1.3689089e-07 0.0022119011
0.0027830778 0.0019400893 2.857192e-06 0.0042305123 0.008219545 0.034004852 0.00020548994 0.00022694263
0.0016129359 0.005566174 0.019202042 0.0031684528 1.3689089e-07 0.022078522 0.00014571511 0.0008549414
0.0040311334 0.0020452612 0.015752941 0.0019182458 0.0094590355 0.0024253915 0.0025568092 1.3689089e-07
0.0067812745 0.0109143825 0.002241931 3.918209e-06 1.3689089e-07 0.014144056 0.00024280649 0.006837614
0.01111909 0.0147368 1.3689089e-07 0.02592153 0.0062471814 0.0004998614 0.0012552745 0.009439394
0.0020874704 0.0037432204 0.00013938229 0.00073148165 0.0092087835 3.70094e-05 0.025336927 9.655194e-05
0.010133131 0.0024912131 0.037126783 0.002192052 0.027373815 0.00062957575 0.022915777 0.022824228
1.3689089e-07 0.023929393 0.0012138984 0.0047852504 0.0036428845 0.013068588 0.0025344144 0.0037814307
0.034288023 0.019892039 0.00715592 0.0019476546 0.005295698 0.0014029872 0.016860986 0.017627524
0.003746204 0.002443968 0.0112472465 1.3689089e-07 0.004768693 0.012311865 1.3689089e-07 0.00040825942
0.008919195 0.0015646997 1.3689089e-07 0.00023150982 0.0029211673 0.0014043285 0.0008740156 0.00030372012
0.012793943 1.538827e-06 0.0028539663 0.00029214736 0.013256864 0.0017229418 0.0048080105 0.0044396156
0.010293352 0.009633773 0.000199996 0.002541078 0.0033880004 0.0073504793 0.030540366 0.000114486036
0.00046168652 1.4546634e-05 0.0002718704 0.03707454 0.0059476383 2.0029931e-06 0.001611051 0.004956447
0.00011385334 0.025964694 0.00332673 0.030963251 0.001287813 0.010160478
00000000: 5f06 e03c a0b6 c839 a455 3c3b 49f4 f93a
00000010: 7683 4838 bf8a 163b 48fc 1234 0e3e 3c3c
00000020: 00da ea3b 6bd2 423c 53de 4f3c 7790 7337
00000030: 48fc 1234 2fda 803a 48f4 bc3c 48fc 1234
00000040: 506b 3a3b 79a5 213c 4484 db3a 3e92 f736
00000050: 34e6 703b 82f9 ca3c 4f02 3c3b ce69 9b3b
00000060: 48fc 1234 8afa 063c b3d9 853c 75f0 af3c
00000070: ebcf 4d3b c676 523c 48fc 1234 8bf5 103b
00000080: 4c64 363b 984a fe3a 2fbe 3f36 1ca0 8a3b
00000090: 45ab 063c ac48 0b3d c978 5739 73f7 6d39
000000a0: 2669 d33a 7464 b63b 9a4d 9d3c d1a5 4f3b
000000b0: 48fc 1234 04de b43c 1acb 1839 251e 603a
000000c0: 9917 843b ca09 063b 500c 813c a66d fb3a
000000d0: 12fa 1a3c 51f3 1e3b 2490 273b 48fc 1234
000000e0: 7435 de3b 3dd2 323c 5ced 123b 2979 8336
000000f0: 48fc 1234 78bc 673c df99 7e39 100e e03b
00000100: d82c 363c 9f72 713c 48fc 1234 6359 d43c
00000110: 28b5 cc3b 2109 033a 0688 a43a b0a7 1a3c
00000120: f1cd 083b d150 753b 2627 1239 e7c0 3f3a
00000130: 70e0 163c 8a3a 1b38 638f cf3c ee7b ca38
00000140: 6f05 263c 9f43 233b 4112 183d 88a8 0f3b
00000150: 0d3f e03c 1d0a 253a deb9 bb3c e0f9 ba3c
00000160: 48fc 1234 9307 c43c ac1b 9f3a 97cd 9c3b
00000170: 76bd 6e3b a21d 563c 6b18 263b e1d1 773b
00000180: 9971 0c3d a1f4 a23c 357c ea3b 7248 ff3a
00000190: 8987 ad3b 70e4 b73a 0d20 8a3c 9967 903c
000001a0: e082 753b fb2a 203b 5f46 383c 48fc 1234
000001b0: b242 9c3b b4b7 493c 48fc 1234 a70b d639
000001c0: d121 123c 9c16 cd3a 48fc 1234 72c1 7239
000001d0: 0e71 3f3b 7211 b83a 321e 653a a03c 9f39
000001e0: b09d 513c b189 ce35 9c09 3b3b 5b2b 9939
000001f0: 5133 593c 55d4 e13a 848c 9d3b 327a 913b
00000200: 73a5 283c f9d6 1d3c 04b6 5139 3788 263b
00000210: 3709 5e3b 4adc f03b ca2f fa3c 3918 f038
00000220: 840e f239 510d 7437 d489 8e39 79db 173d
00000230: 68e4 c23b 296b 0636 e729 d33a b169 a23b
00000240: 8cc4 ee38 e9b3 d43c 4505 5a3b a5a6 fd3c
00000250: d5cb a83a 2278 263c

layers.3.weight f4 [50, 150]
0.04300426 0.049136877 -0.041182913 -0.06825014 -0.07354943 -0.00145554 0.05178938 -0.033490453
0.05846822 0.0591303 0.020933732 -0.0135548925 -0.0011907477 0.05793022 -0.01514612 -0.03664176
0.050382096 -0.042666502 0.046351302 -0.046304848 -0.080194935 0.029359264 0.056832075 0.0756947
-0.003465122 0.038919598 -0.03814091 0.01815991 0.07203211 -0.028327705 -0.019925494 -0.03005911
-0.042380534 -0.006826093 -0.053922974 -0.07497281 -0.04927864 0.035308756 -0.018195776 -0.057669796
0.0643561 0.009730588 -0.045914598 0.056251746 0.06861461 0.034340557 -0.019918356 -0.024121823
0.03947423 -0.06804713 0.06273323 0.05235601 0.07004097 0.07641532 -0.023591153 0.026778266
-0.07220038 0.004590282 0.07255573 -0.025011953 -0.024772348 0.076266535 0.041788276 0.076348476
0.02028864 0.075525194 0.018519063 -0.07234712 0.02102725 -0.026155606 -0.06936487 -0.03430376
-0.018882325 -0.00800241 -0.081643164 -0.036278572 -0.052481927 -0.010153013 0.03976957 -0.07013116
0.07149128 0.003865425 0.07622471 0.027393801 0.036328886 0.04281981 -0.05232291 0.056722593
0.05489169 -0.06504319 0.06276141 -0.058578737 0.07983468 -0.0142311435 -0.051392194 -0.026048793
0.020057127 0.012009065 -0.0073847356 -0.05780234 -0.048614454 0.042364594 -0.06956814 -0.022908174
-0.01590295 -0.004314514 0.03673483 -0.04371994 0.050895747 0.049596116 -0.042408872 -0.023228645
0.039359294 -0.08170385 0.04929985 -0.0037919562 0.004183696 0.03740574 -0.05864189 0.026562264
0.029217087 -0.018877208 0.042240392 0.026571479 0.01809661 0.020644363 -0.0026221038 -0.030496351
0.05410284 0.05152447 0.045472663 0.00905544 0.06228528 -0.07493121 -0.023462173 0.01298931
-0.022274088 -0.069430016 0.037004482 0.0088627115 0.020772679 -0.031476505 0.021334007 0.04991664
0.030454827 0.0099810595 0.026883699 -0.05196778 -0.039022323 0.07727707 0.039963957 0.0034081023
0.008935858 0.016125936 -0.0058125937 0.04000143 -2.6723763e-05 -0.056203347 0.04213566 -0.0106689865
0.0017861632 -0.010720913 0.03119553 0.075508416 0.045521613 0.0026771682 0.0441599 -0.07274529
-0.006477644 -0.04578885 0.048204206 0.066362344 0.029978279 -0.011172305 -0.081526496 -0.05841473
0.047937047 -0.03861084 0.047183618 -0.060512014 -0.07315745 0.06650365 0.05487953 -0.012630045
0.032480527 0.08428784 -0.048441485 -0.07080534 -0.01447727 0.021843001 -0.006791279 0.047201887
-0.037258692 0.027687242 0.02931441 -0.04027494 -0.027337803 -0.06367168 0.071529545 0.072332256
-0.0010926427 -0.005649648 -0.023827665 0.06071197 0.015394016 0.06947881 -0.06648055 0.026727283
0.063348256 -0.0034555178 0.041773196 -0.07584953 0.03639703 -0.058323376 -0.07911311 -0.057385825
-0.0049509974 -0.040399075 0.0010087943 -0.0042514442 0.036296092 0.07435764 0.028262721 0.050529588
0.04470553 0.001676765 -0.03280745 0.027431197 -0.017293079 0.06493683 -0.0018903785 -0.00474752
-0.059251465 -0.06261984 0.07133296 -0.05466005 0.027227232 0.061355814 0.021067888 0.084277116
0.0058202124 -0.04066816 0.028890079 0.012032421 -0.010556975 0.03494423 -0.0050427867 0.047927026
-0.020040115 0.0190916 -0.07195641 0.06725601 0.07941179 -0.058557823 0.055186257 0.021211801
00000000: 3c25 303d c043 493d 6aaf 28bd bbc6 8bbd
00000010: 15a1 96bd d1c7 beba 1a21 543d 492d 09bd
00000020: 5f7c 6f3d 9d32 723d 387d ab3c 5715 5ebc
00000030: dd12 9cba 3d48 6d3d 6f27 78bc ac15 16bd
00000040: 755d 4e3d 12c3 2ebd ddda 3d3d 27aa 3dbd
00000050: 3e3d a4bd d782 f03c c0c8 683d d305 9b3d
00000060: 1a17 63bb 286a 1f3d a539 1cbd 17c4 943c
00000070: 9285 933d 810f e8bc ca3a a3bc 863e f6bc
00000080: 3697 2dbd 6bad dfbb 56de 5cbd 588b 99bd
00000090: 66d8 49bd ea9f 103d 4f0f 95bc 2a37 6cbd
000000a0: 22cd 833d 0b6d 1f3c f210 3cbd 3b68 663d
000000b0: d185 8c3d afa8 0c3d d22b a3bc 219b c5bc
000000c0: bbaf 213d 4b5c 8bbd 487a 803d 4173 563d
000000d0: a471 8f3d a37f 9c3d 3c42 c1bc 185e db3c
000000e0: cbdd 93bd 146a 963b 1998 943d dee5 ccbc
000000f0: 61ef cabc a131 9c3d 2f2a 2b3d 975c 9c3d
00000100: 5d34 a63c f4ac 9a3d 4ab5 973c ba2a 94bd
00000110: 5741 ac3c 4844 d6bc 2b0f 8ebd 1982 0cbd
00000120: 1baf 9abc 8a1c 03bc 8834 a7bd d798 14bd
00000130: 4af7 56bd d358 26bc 6be5 223d eda0 8fbd
00000140: 056a 923d 1253 7d3b b31b 9c3d f768 e03c
00000150: 99cd 143d d363 2f3d 8c50 56bd f355 683d
00000160: 1cd6 603d 5d35 85bd 0e89 803d 42f0 6fbd
00000170: 5d80 a33d be29 69bc 9f80 52bd 4764 d5bc
00000180: d84e a43c abc1 443c a7fb f1bb 25c2 6cbd
00000190: f31f 47bd 7f86 2d3d be79 8ebd eca9 bbbc
000001a0: e746 82bc c460 8dbb 4377 163d ae13 33bd
000001b0: 0f78 503d 4c25 4b3d edb4 2dbd 004a bebc
000001c0: 3637 213d 5954 a7bd a4ee 493d 7882 78bb
000001d0: 6317 893b c336 193d 7a32 70bd 1b99 d93c
000001e0: ac58 ef3c 60a4 9abc 4304 2d3d 6eac d93c
000001f0: 583f 943c 5e1e a93c 9ad7 2bbb 7cd3 f9bc
00000200: f19a 5d3d 530b 533d 8b41 3a3d 455d 143c
00000210: da1e 7f3d 8975 99bd be33 c0bc 1dd1 543c
00000220: 2678 b6bc 5331 8ebd 0392 173d e834 113c
00000230: 772b aa3c 82ed 00bd a8c4 ae3c 6475 4c3d
00000240: 677c f93c 9987 233c 343b dc3c 2bdc 54bd
00000250: dfd5 1fbd 7143 9e3d 3fb1 233d 785a 5f3b
00000260: b467 123c 8a1a 843c 9277 bebb 8ad8 233d
00000270: d82c e0b7 7b35 66bd 7196 2c3d f9cc 2ebc
00000280: b11d ea3a c5a6 2fbc c58d ff3c 28a4 9a3d
00000290: df74 3a3d 6e73 2f3b 03e1 343d 7cfb 94bd
000002a0: 6b42 d4bb 178d 3bbd c671 453d fbe8 873d
000002b0: 0295 f53c 0b0c 37bc 5df7 a6bd 4944 6fbd
000002c0: a359 443d 6626 1ebd 9c43 413d 72db 77bd
000002d0: 93d3 95bd 1133 883d 5cc9 603d 40ee 4ebc
000002e0: 4d0a 053d 1a9f ac3d 946a 46bd 6402 91bd
000002f0: 1232 6dbc 18f0 b23c 6189 debb c456 413d
00000300: 929c 18bd 5bd0 e23c c624 f03c 56f7 24bd
00000310: 87f3 dfbc 4c66 82bd 157e 923d ef22 943d
00000320: 0137 8fba af20 b9bb 3c32 c3bc 1dad 783d
00000330: 2f37 7c3c e84a 8e3d f426 88bd 2df3 da3c
00000340: bbbc 813d f875 62bb 5f1a 2b3d 0057 9bbd
00000350: 0d15 153d 7ee4 6ebd 0e06 a2bd 660d 6bbd
00000360: fa3b a2bb 8079 25bd 8539 843a b34f 8bbb
00000370: 36ab 143d d248 983d 3987 e73c 1df8 4e3d
00000380: 251d 373d e6c6 db3a 1b61 06bd 64b7 e03c
00000390: 37aa 8dbc 9afd 843d 94c6 f7ba 1691 9bbb
000003a0: aab1 72bd d53e 80bd 0417 923d 37e3 5fbd
000003b0: a50b df3c 3c50 7b3d 9096 ac3c 7b99 ac3d
000003c0: 7bb7 be3b a893 26bd e3aa ec3c a223 453c
000003d0: 2af7 2cbc ae21 0f3d f63d a5bb 214f 443d
000003e0: 2b2b a4bc fd65 9c3c e25d 93bd 85bd 893d
000003f0: a6a2 a23d 54da 6fbd fc0a 623d 5fc4 ad3c

layers.3.bias f4 [50]
0.0458635 -0.0651048 0.06515787 -0.045901272 0.03623054 0.041090533 0.026467467 -0.024817284
-0.06998731 0.01824972 -0.061797336 -0.045772593 -0.010857131 -0.018734083 -0.0717538 -0.041786574
-0.0803566 0.018802984 0.08048261 0.075898536 0.009324166 0.02441984 0.047714595 0.05838264
0.024726175 -0.06820965 -0.059559807 -0.036954608 0.07354765 0.033798303 0.031407595 0.068432316
-0.023848342 0.05346411 0.052223943 0.00037551994 -0.053986605 0.018630287 -0.055043556 -0.029552616
-0.026709575 0.05806266 0.0073580192 -0.023873745 0.059609365 0.044221025 0.03830211 -0.008698296
0.013789351 0.0579815
00000000: 5edb 3b3d aa55 85bd 7d71 853d f902 3cbd
00000010: 7a66 143d 8c4e 283d 4dd2 d83c 9e4d cbbc
00000020: 8255 8fbd 7080 953c 341f 7dbd 0b7c 3bbd
00000030: 1ce2 31bc 3878 99bc a8f3 92bd 6628 2bbd
00000040: 0092 a4bd b708 9a3c 11d4 a43d b170 9b3d
00000050: 63c4 183c 1e0c c83c 6170 433d a322 6f3d
00000060: 8c8e ca3c 80b1 8bbd fcf4 73bd b75d 17bd
00000070: 26a0 963d 1770 0a3d 40a5 003d 3e26 8c3d
00000080: 995d c3bc 2ffd 5a3d c6e8 553d 6fe1 c439
00000090: 0f21 5dbd 8b9e 983c 5a75 61bd 5418 f2bc
000000a0: 0ace dabc 1dd3 6d3d 8a1b f13b df92 c3bc
000000b0: f328 743d 1b21 353d ace2 1c3d 4c83 0ebc
000000c0: bbec 613c 027e 6d3d

layers.5.weight f4 [50]
0.99969643 0.9928874 0.9924969 0.99440134 0.9911772 0.9942257 0.99717104 0.9941671
0.9953086 0.99537325 0.99733126 0.99186045 0.993466 0.999619 0.9917228 0.99549246
0.9921116 0.99496734 0.99890625 0.9935598 0.9985982 0.99030304 0.9950429 0.9938513
0.9965231 0.99731517 0.99263597 0.9951598 0.99734306 0.99810743 0.99433154 0.99602777
0.9904222 0.9969457 0.99425834 0.99096286 0.9936211 0.9983808 0.9939456 0.9942346
0.99554336 0.99453753 0.99528664 0.9981799 0.9901996 0.99824446 0.9976818 0.9973416
0.9950825 0.9952907
00000000: 1bec 7f3f de2d 7e3f 4714 7e3f 1691 7e3f
00000010: cabd 7d3f 9385 7e3f 9a46 7f3f bc81 7e3f
00000020: 8bcc 7e3f c8d0 7e3f 1a51 7f3f 91ea 7d3f
00000030: ca53 7e3f 08e7 7f3f 8ce1 7d3f 98d8 7e3f
00000040: 07fb 7d3f 2eb6 7e3f 52b8 7f3f ef59 7e3f
00000050: 22a4 7f3f 8084 7d3f 22bb 7e3f 0a6d 7e3f
00000060: 231c 7f3f 0c50 7f3f 641d 7e3f cbc2 7e3f
00000070: e051 7f3f f883 7f3f 838c 7e3f adfb 7e3f
00000080: 4f8c 7d3f d537 7f3f b787 7e3f beaf 7d3f
00000090: f45d 7e3f e295 7f3f 3873 7e3f 2986 7e3f
000000a0: eedb 7e3f 039a 7e3f 1bcb 7e3f b888 7f3f
000000b0: b97d 7d3f f38c 7f3f 1368 7f3f c751 7f3f
000000c0: babd 7e3f 5fcb 7e3f

layers.5.bias f4 [50]
-0.028097 -0.02742373 -0.027485559 -0.0275695 -0.027389556 -0.027574629 0.028126061 -0.027234582
0.027676255 -0.02772374 0.027830116 -0.026974473 0.027616275 0.028152397 0.02674154 0.027583277
-0.027453497 0.02769204 -0.028497942 -0.02736392 0.028079554 -0.027473412 -0.02755493 -0.027513374
-0.027626283 -0.028002648 -0.027541853 0.027569056 -0.028960086 0.027901905 0.027403522 0.030001543
-0.026164616 -0.027790414 0.02641755 -0.013331097 0.027251491 -0.028037472 -0.027392948 0.027678387
-0.027832003 0.027405187 -0.027586281 0.027927812 -0.027386334 0.028263314 0.027864864 0.027877431
-0.027664436 0.027739067
00000000: ae2b e6bc bba7 e0bc 6529 e1bc 6fd9 e1bc
00000010: 1060 e0bc 30e4 e1bc a068 e63c 0f1b dfbc
00000020: 50b9 e23c e61c e3bc fcfb e33c 92f9 dcbc
00000030: 873b e23c db9f e63c 1311 db3c 53f6 e13c
00000040: 28e6 e0bc 6bda e23c 8474 e9bc 4d2a e0bc
00000050: 1807 e63c ec0f e1bc e0ba e1bc ba63 e1bc
00000060: 8450 e2bc cf65 e5bc 749f e1bc 80d8 e13c
00000070: b43d edbc 8992 e43c 5a7d e03c ccc5 f53c
00000080: 2d57 d6bc b9a8 e3bc 9e69 d83c ac6a 5abc
00000090: 853e df3c d7ae e5bc 2d67 e0bc c9bd e23c
000000a0: f1ff e3bc d880 e03c a0fc e1bc dec8 e43c
000000b0: 4e59 e0bc 7788 e73c db44 e43c 365f e43c
000000c0: 87a0 e2bc 0a3d e33c

layers.5.running_mean f4 [50]
0.08706327 0.2224553 0.18705453 0.15590586 0.09887428 0.1926588 0.2967273 0.20133933
0.16922422 0.07567538 0.34847632 0.1156474 0.09029682 0.1596754 0.080279484 0.10886281
0.060768288 0.18636805 0.36735794 0.30847797 0.079212986 0.175213 0.34694386 0.39158136
0.08788526 0.29449016 0.17641847 0.06356019 0.20888361 0.1931873 0.39333513 0.24456792
0.088152386 0.31517693 0.14478727 0.20925216 0.29875246 0.27116618 0.06089212 0.26019195
0.11760667 0.18206346 0.3080351 0.124873005 0.20476322 0.20886144 0.28893283 0.10981773
0.16137643 0.29076046
00000000: 3a4e b23d 52cb 633e 398b 3f3e c9a5 1f3e
00000010: 997e ca3d 5948 453e a4ec 973e e62b 4e3e
00000020: 1d49 2d3e b2fb 9a3d 7d6b b23e 8bd8 ec3d
00000030: 8aed b83d f381 233e 9269 a43d 77f3 de3d
00000040: 2be8 783d 44d7 3e3e 5716 bc3e d3f0 9d3e
00000050: 6b3a a23d 096b 333e a0a2 b13e 5a7d c83e
00000060: 30fd b33d 6ac7 963e 0ba7 343e d82b 823d
00000070: 96e5 553e e4d2 453e 3963 c93e 0370 7a3e
00000080: 3d89 b43d df5e a13e 1d43 143e 3346 563e
00000090: 15f6 983e 4bd6 8a3e 046a 793d e137 853e
000000a0: c4db f03d d86e 3a3e c7b6 9d3e 6bbd ff3d
000000b0: 73ad 513e c6df 553e 01ef 933e 1ee8 e03d
000000c0: dd3f 253e 8ede 943e

layers.5.running_var f4 [50]
0.01692201 0.18650605 0.3862166 0.14394993 0.06931215 0.040662427 0.23531094 0.09087535
0.116633154 0.013291089 0.24211693 0.01479133 0.01179431 0.049333557 0.014211633 0.020005455
0.00679706 0.0992462 0.13363688 0.70376325 0.06149387 0.14544168 0.5492421 0.20016365
0.022755947 0.095930144 0.32080612 0.05946069 0.0661868 0.121166795 0.20220026 0.040554035
0.065629505 0.33919612 0.16605373 0.13269354 0.104242384 0.06946048 0.021141928 0.17844228
0.05978062 0.100642115 0.34568313 0.07216932 0.04562062 0.10537411 0.10878586 0.13972224
0.051794752 0.30273703
00000000: 07a0 8a3c 71fb 3e3e 2fbe c53e 9c67 133e
00000010: 87f3 8d3d a58d 263d 5af5 703e db1c ba3d
00000020: 5ddd ee3d dec2 593c 80ed 773e 5657 723c
00000030: ec3c 413c fc11 4a3d e9d7 683c 7be2 a33c
00000040: dfb9 de3b 9741 cb3d 1bd8 083e d429 343f
00000050: ffe0 7b3d aaee 143e 219b 0c3f b3f7 4c3e
00000060: ae6a ba3c 0677 c43d b340 a43e 0d8d 733d
00000070: f28c 873d 4c26 f83d 960d 4f3e fd1b 263d
00000080: c368 863d 1dab ad3e fd09 2a3e d1e0 073e
00000090: 087d d53d 4c41 8e3d d631 ad3c 93b9 363e
000000a0: 86dc 743d 741d ce3d 61fd b03e 82cd 933d
000000b0: b0dc 3a3d 62ce d73d 1fcb de3d 5913 0f3e
000000c0: bc26 543d 5900 9b3e

layers.6.weight f4 [2, 50]
-0.035479534 0.06694098 0.08221516 0.08789548 0.0926365 0.12714685 -0.13497664 -0.069396794
-0.009444961 -0.012275505 0.039587617 -0.014353098 -0.11130151 -0.016332163 0.024611149 -0.13812065
0.079106964 -0.046375122 -0.048532665 0.060285483 -0.01679532 0.12096431 0.0903165 0.11892352
-0.037583493 0.015169232 0.06429246 -0.028956247 0.10359751 -0.12970129 -0.041588675 0.073099315
-0.056483258 0.13419597 -0.027837545 0.078497626 -0.100002035 0.12069545 -0.07525089 -0.092846364
-0.018223533 -0.07681908 0.026419017 -0.11291331 0.07320291 0.10049615 -0.115937226 -0.044144157
-0.04407819 -0.119964875 -0.11353778 -0.025812963 -0.053719666 -0.018743737 -0.049977243 -0.023851389
-0.11083234 -0.11890076 0.07719932 -0.13190731 0.10335741 -0.07710184 0.05045388 0.04940803
0.063314065 -0.08570019 -0.07682878 0.05880284 -0.083709836 -0.006346892 0.05342662 -0.09243438
0.05041377 0.050956015 -0.13179967 -0.031617723 -0.10098415 0.024554716 0.088444 0.008292738
0.004338805 0.08093507 -0.09188957 0.015968366 -0.019701552 0.0781595 -0.058730777 0.06053387
-0.10177745 0.1118822 -0.048224296 -0.02996697 -0.051706184 -0.0023230526 -0.058865152 0.13919477
-0.0189219 0.052667446 -0.08016296 0.13384616
00000000: fd52 11bd 5a18 893d 6c60 a83d 8c02 b43d
00000010: 35b8 bd3d c932 023e 5137 0abe e81f 8ebd
00000020: 0abf 1abc 331f 49bc a026 223d 4229 6bbc
00000030: 0cf2 e3bd 07cb 85bc 529d c93c 806f 0dbe
00000040: d502 a23d d7f3 3dbd 30ca 46bd e9ed 763d
00000050: 5796 89bc 23bc f73d dbf7 b83d 2d8e f33d
00000060: 26f1 19bd 5f88 783c c4ab 833d a735 edbc
00000070: ee2a d43d 6ad0 04be e358 2abd 18b5 953d
00000080: fd5a 67bd ab6a 093e 900b e4bc 5dc3 a03d
00000090: decd ccbd 2d2f f73d 231d 9abd 3c26 bebd
000000a0: 8549 95bc 5253 9dbd b26c d83c 183f e7bd
000000b0: 68eb 953d edd0 cd3d 7f70 edbd 81d0 34bd
000000c0: 558b 34bd 25b0 f5bd 7f86 e8bd b575 d3bc
000000d0: 2709 5cbd 778c 99bc f0b4 4cbd fd63 c3bc
000000e0: 11fc e2bd 3e82 f3bd ad1a 9e3d b612 07be
000000f0: 0dad d33d 92e7 9dbd baa8 4e3d 1360 4a3d
00000100: ceaa 813d 9583 afbd 6858 9dbd 3fdb 703d
00000110: 1070 abbd 97f9 cfbb dfd5 5a3d 3c4e bdbd
00000120: ab7e 4e3d 41b7 503d 7ef6 06be 9681 01bd
00000130: c7d0 cebd f926 c93c 2122 b53d 44de 073c
00000140: 892c 8e3b 49c1 a53d 9930 bcbd 17d0 823c
00000150: 2665 a1bc 1712 a03d af8f 70bd 5df2 773d
00000160: b270 d0bd 7f22 e53d d786 45bd 4b7d f5bc
00000170: ddc9 53bd 5b3e 18bb 961c 71bd 1389 0e3e
00000180: 1a02 9bbc d2b9 573d 7a2c a4bd f80e 093e

layers.6.bias f4 [2]
-0.0034507294 -0.07280657
00000000: a225 62bb 9c1b 95bd

exp_avg f4 [3, 3]
-0.018246554 0.0026488164 -0.013214908 -0.034556095 0.02452788 0.026923945 0.034877557 -0.020615222
0.005446325
00000000: cc79 95bc c497 2d3b 5783 58bc b18a 0dbd
00000010: b1ee c83c 9b8f dc3c c5db 0e3d 41e1 a8bc
00000020: 1677 b23b

exp_avg_sq f4 [3, 3]
0.0017886144 0.0003319171 0.0030082897 0.052632716 0.008855464 0.04506724 0.052930266 0.009020358
0.04577949
00000000: f16f ea3a 2905 ae39 ba26 453b 6795 573d
00000010: 8216 113c 6d98 383d 68cd 583d 20ca 133c
00000020: 4683 3b3d

exp_avg f4 [3, 3]
0.0 0.0 0.0 0.03927118 -0.0012887131 -0.015653078 -0.03222966 -0.023123858
0.010182658
00000000: 0000 0000 0000 0000 0000 0000 d1da 203d
00000010: 09ea a8ba e23a 80bc 3f03 04bd 3f6e bdbc
00000020: 2ad5 263c

exp_avg_sq f4 [3, 3]
0.0 0.0 0.0 0.0125081 0.007955379 0.018166397 0.01086262 0.0055031786
0.0152134
00000000: 0000 0000 0000 0000 0000 0000 c6ee 4c3c
00000010: 4757 023c b2d1 943c 21f9 313c 0254 b43b
00000020: a041 793c

exp_avg f4 [3, 3]
0.0 0.0 0.0 0.04131882 0.01626556 -0.0101885125 -0.017472578 -0.022693707
-0.010239059
00000000: 0000 0000 0000 0000 0000 0000 ec3d 293d
00000010: 5a3f 853c b8ed 26bc a722 8fbc 27e8 b9bc
00000020: bac1 27bc

exp_avg_sq f4 [3, 3]
0.0 0.0 0.0 0.0065475306 0.014551347 0.01217755 0.0033540633 0.010490121
0.011080376
00000000: 0000 0000 0000 0000 0000 0000 ab8c d63b
00000010: c668 6e3c 5984 473c d8cf 5b3b c2de 2b3c
00000020: 778a 353c

exp_avg f4 [3, 3]
0.0 0.0 0.0 0.0063313 0.011599362 0.003672285 -0.000258574 -0.0041093407
0.002412859
00000000: 0000 0000 0000 0000 0000 0000 cb76 cf3b
00000010: 400b 3e3c b8aa 703b 3791 87b9 a6a7 86bb
00000020: 0e21 1e3b

exp_avg_sq f4 [3, 3]
0.0 0.0 0.0 0.003385413 0.0039039298 0.0061766566 0.00015908535 0.00035164837
0.0029381586
00000000: 0000 0000 0000 0000 0000 0000 cedd 5d3b
00000010: 13d9 7f3b 8d65 ca3b 26d0 2639 725d b839
00000020: 1f8e 403b

exp_avg f4 [3, 3]
0.0 0.0 0.0 0.019698316 -0.013524075 -0.003331083 -0.0015082471 0.014840939
0.008868016
00000000: 0000 0000 0000 0000 0000 0000 5d5e a13c
00000010: 1594 5dbc 4d4e 5abb 60b0 c5ba 6927 733c
00000020: 284b 113c

exp_avg_sq f4 [3, 3]
0.0 0.0 0.0 0.004448953 0.0072599 0.004686193 0.00072335865 0.0062804813
0.0018568011
00000000: 0000 0000 0000 0000 0000 0000 86c8 913b
00000010: 75e4 ed3b a38e 993b c79f 3d3a 7fcc cd3b
00000020: e85f f33a

exp_avg f4 [3, 3]
0.0 0.0 0.0 0.0025895878 0.03607231 0.0010541149 -0.010740387 -0.010881165
0.0021878176
00000000: 0000 0000 0000 0000 0000 0000 13b6 293b
00000010: 8fc0 133d 3a2a 8a3a 73f8 2fbc ea46 32bc
00000020: 7d61 0f3b

exp_avg_sq f4 [3, 3]
0.0 0.0 0.0 0.006743002 0.0076017776 0.0031894282 0.0018800001 0.0034832857
0.00025870002
00000000: 0000 0000 0000 0000 0000 0000 67f4 dc3b
00000010: 5518 f93b ba05 513b 566a f63a d647 643b
00000020: 21a2 8739

exp_avg f4 [150, 19]
-8.9568675e-06 9.370737e-06 3.317334e-05 1.3128939e-05 3.8865e-06 -1.931264e-06 1.4482043e-06 -3.1130898e-05
9.223822e-07 -4.7399985e-06 -1.239077e-06 -3.0414826e-06 1.9354245e-06 4.82046e-06 -4.810874e-06 -1.0322994e-05
-6.2603426e-06 4.230654e-06 -0.00055658974 6.126042e-05 -6.484785e-05 -0.00023410941 0.0002912019 0.0005244672
-0.00032498175 8.222015e-05 0.0004926193 -4.3442273e-05 2.3269726e-05 5.7334237e-05 1.7489892e-05 6.204402e-05
4.9074275e-05 0.00012237305 7.123474e-05 -1.131507e-05 -2.1805185e-05 -0.0051624365 -1.0634936e-06 -1.4286674e-06
-7.648016e-06 5.739278e-06 6.2704376e-06 -3.7786601e-06 -3.2383658e-05 -0.000103281025 1.3109163e-05 1.6764924e-06
-1.1854642e-05 5.6061697e-07 8.315272e-06 1.0021801e-05 9.49211e-06 -1.4569047e-06 1.5120169e-07 2.0439207e-07
-1.3698796e-05 1.00421385e-05 -7.0176916e-06 -2.1032422e-05 -2.3064069e-05 -2.0241221e-05 1.1921868e-05 -1.4853096e-05
-1.47713545e-05 4.521186e-06 1.622131e-06 1.4025042e-05 1.8324072e-06 -3.2935563e-06 -5.4567663e-06 2.4420995e-06
8.441865e-06 -1.4261133e-06 -2.8692743e-06 -0.00030509732 9.3685165e-05 1.1957614e-05 0.00019305172 -8.5714266e-05
4.046154e-05 -2.9918361e-05 -0.00021529042 -0.00026952205 6.918991e-05 4.457624e-05 4.9882477e-05 3.071867e-05
-1.8300865e-05 -4.8970534e-05 5.532517e-05 0.00011083656 -1.7810313e-05 -3.4833607e-05 0.019337455 -3.7996648e-05
3.449855e-05 0.00011720662 -0.00010324505 -0.0002124924 0.00013234644 -3.957045e-05 -0.0002688297 2.2270344e-05
-2.2917984e-05 1.0110852e-05 -1.3912536e-05 -1.4735794e-05 -5.352215e-06 -4.790086e-05 -4.306658e-05 9.94812e-06
1.3176959e-05 0.0011034166 0.0 0.0 0.0 0.0 0.0 0.0
0.0 0.0 0.0 0.0 0.0 0.0 0.0 0.0
0.0 0.0 0.0 0.0 0.0 2.473619e-05 -4.7095927e-08 3.248421e-05
1.7833998e-05 5.6388206e-05 -3.5525623e-05 -4.4674445e-05 -6.385939e-05 1.4750371e-05 7.0902643e-06 1.5216391e-05
5.236754e-06 -1.6715254e-05 -2.4207802e-05 -5.962108e-06 2.0772151e-05 -1.885757e-05 -4.329393e-06 -0.00022345239
1.949622e-05 -3.079737e-05 -0.00012586774 8.4763196e-05 0.00015233959 -9.446265e-05 3.061294e-05 0.00016314117
-1.5282687e-05 1.1375186e-05 -7.634856e-06 6.7248593e-06 2.3174265e-05 2.0530659e-05 4.212777e-05 2.0452902e-05
-3.530231e-06 -6.3769758e-06 -0.0007688239 1.2897966e-05 -3.3776391e-06 3.58908e-06 7.3513285e-05 0.00014220436
-8.840483e-05 1.6039368e-05 0.0001331046 -1.0194222e-05 1.4765172e-06 5.411037e-05 3.6202214e-06 -5.7382076e-06
-1.3346461e-05 9.404629e-06 2.4697923e-05 2.124759e-06 -8.318991e-06 0.002394519 3.643824e-06 1.0964896e-05
5.8642265e-05 -1.5155753e-05 -1.3622773e-05 8.100968e-06 -8.963724e-06 -8.347123e-06 2.6871523e-06 -4.559637e-06
3.764283e-05 -9.054578e-07 -1.604036e-05 -1.931981e-05 -1.5661073e-05 5.430556e-06 -8.359021e-06 -6.760426e-07
-0.0008726765 -2.9422617e-05 4.036988e-06 -2.4451643e-05 7.7431774e-05 6.334173e-05 -3.7974674e-05 0.00027810922
0.00072809105 -0.00010561094 -1.1870752e-05 -1.8144872e-05 -7.753111e-06 3.2329672e-06 1.6041091e-05 -1.561361e-05
-3.443663e-05 5.358373e-06 9.214595e-06 -0.0074696126 0.0 0.0 0.0 0.0
0.0 0.0 0.0 0.0 0.0 0.0 0.0 0.0
0.0 0.0 0.0 0.0 0.0 0.0 0.0 -6.963488e-05
7.958255e-06 -6.289701e-05 0.00014136783 7.8602745e-05 -4.438477e-05 0.00014106827 0.00013577941 -4.3469918e-05
00000000: 7445 16b7 0237 1d37 9a23 0b38 5d44 5c37
00000010: c868 8236 dd9a 01b6 ec5f c235 8c92 02b8
00000020: 9f99 7735 470c 9fb6 5d4e a6b5 461c 4cb6
00000030: 57e2 0136 70bf a136 186d a1b6 ec30 2db7
00000040: ef0f d2b6 0bf5 8d36 1be8 11ba f078 8038
00000050: edfe 87b8 447b 75b9 75ac 9839 667c 093a
00000060: 5062 aab9 9b6d ac38 1f23 013a c935 36b8
00000070: 5b33 c337 2b7a 7038 42b7 9237 a11d 8238
00000080: 1ad5 4d38 4451 0039 dc63 9538 dbd5 3db7
00000090: 47ea b6b7 a829 a9bb 5dbd 8eb5 a3c0 bfb5
000000a0: fb4f 00b7 0694 c036 a666 d236 e394 7db6
000000b0: b0d3 07b8 9498 d8b8 6def 5b37 d703 e135
000000c0: 4de3 46b7 4e7d 1635 d281 0b37 4f23 2837
000000d0: 4d40 1f37 dd8a c3b5 015a 2234 dd76 5b34
000000e0: e1d3 65b7 a87a 2837 8379 ebb6 c86e b0b7
000000f0: b679 c1b7 b1cb a9b7 0804 4837 9031 79b7
00000100: 7cd2 77b7 b1b4 9736 ffb7 d935 194d 6b37
00000110: 08f1 f535 de06 5db6 4419 b7b6 f3e2 2336
00000120: 89a1 0d37 e168 bfb5 c28d 40b6 78f5 9fb9
00000130: d778 c438 909d 4837 ed6d 4a39 7fc1 b3b8
00000140: 3fb5 2938 31f9 fab7 95bf 61b9 a34e 8db9
00000150: 0d1a 9138 60f7 3a38 e738 5138 ecd7 0038
00000160: cf84 99b7 b665 4db8 f30c 6838 ed70 e838
00000170: 5b67 95b7 4d1a 12b8 9569 9e3c 975e 1fb8
00000180: 89b2 1038 d3cc f538 4485 d8b8 7fd0 5eb9
00000190: 7ac6 0a39 72f8 25b8 b6f1 8cb9 33d1 ba37
000001a0: ff3f c0b7 c7a1 2937 e369 69b7 c139 77b7
000001b0: 2d97 b3b6 28e9 48b8 63a2 34b8 dae6 2637
000001c0: 9c12 5d37 84a0 903a 0000 0000 0000 0000
000001d0: 0000 0000 0000 0000 0000 0000 0000 0000
000001e0: 0000 0000 0000 0000 0000 0000 0000 0000
000001f0: 0000 0000 0000 0000 0000 0000 0000 0000
00000200: 0000 0000 0000 0000 0000 0000 0000 0000
00000210: 0000 0000 9080 cf37 8546 4ab3 a83f 0838
00000220: 389a 9537 6082 6c38 5901 15b8 d260 3bb8
00000230: 40ec 85b8 5c78 7737 e8e8 ed36 e749 7f37
00000240: 60b7 af36 bc37 8cb7 dc11 cbb7 1e0e c8b6
00000250: db3f ae37 5330 9eb7 3445 91b6 8b4e 6ab9
00000260: d08b a337 6d2c 01b8 5dfb 03b9 e5c2 b138
00000270: 59bd 1f39 401a c6b8 6566 0038 e010 2b39
00000280: 5233 80b7 0dd8 3e37 7517 00b7 1aa6 e136
00000290: 5b66 c237 4139 ac37 59b2 3038 4692 ab37
000002a0: e8e8 6cb6 cef9 d5b6 e68a 49ba 5864 5837
000002b0: 66ab 62b6 eddb 7036 252b 9a38 b11c 1539
000002c0: fb65 b9b8 488c 8637 fe91 0b39 da07 2bb7
000002d0: bf2c c635 91f4 6238 eef2 7236 d48a c0b6
000002e0: 9dea 5fb7 93c8 1d37 632e cf37 1597 0e36
000002f0: cb91 0bb7 5ded 1c3b 6b88 7436 dff5 3737
00000300: a7f6 7538 7745 7eb7 5d8d 64b7 65e9 0737
00000310: e762 16b7 9f0a 0cb7 ed54 3436 fcfe 98b6
00000320: aee2 1d38 960e 73b5 698e 86b7 fa10 a2b7
00000330: e65f 83b7 1f38 b636 b93d 0cb7 4b79 35b5
00000340: 54c4 64ba 97d0 f6b7 7675 8736 811d cdb7
00000350: de62 a238 55d6 8438 ff46 1fb8 30cf 9139
00000360: 5ddd 3e3a 717b ddb8 7e28 47b7 d135 98b7
00000370: 5c13 02b7 f4f5 5836 fb8f 8637 f9f9 82b7
00000380: 0d70 10b8 13cc b336 6298 1a37 a7c3 f4bb
00000390: 0000 0000 0000 0000 0000 0000 0000 0000
000003a0: 0000 0000 0000 0000 0000 0000 0000 0000
000003b0: 0000 0000 0000 0000 0000 0000 0000 0000
000003c0: 0000 0000 0000 0000 0000 0000 0000 0000
000003d0: 0000 0000 0000 0000 0000 0000 f108 92b8
000003e0: 7284 0537 93e7 83b8 233c 1439 87d7 a438
000003f0: c929 3ab8 baeb 1339 0260 0e39 7853 36b8
