UnivAiBlog/covid19_ml_education/models/tmp.pth (torch_old, 50763 bytes, 20 tensors)

embeds.0.weight f4 [3, 3]
0	0xbb73b76f	-0.0037188192
1	0x3ab17126	0.0013537749
2	0x3a96b7b1	0.0011498836
3	0x3c6d1a65	0.014471625
4	0x3a6aec72	0.00089616247
5	0x39cbfcc6	0.00038907508
6	0x3afe4266	0.001939845
7	0xbb121e64	-0.0022295946
8	0xbbfcc1c0	-0.0077135265

embeds.1.weight f4 [3, 3]
0	0xbc6b4cb8	-0.014361553
1	0xbbb1d41d	-0.005426897
2	0x3b9d6b71	0.004804068
3	0xbb912d66	-0.0044304607
4	0xbc570769	-0.013124325
5	0x3b884d6f	0.0041596214
6	0xbbe818bb	-0.007083026
7	0xbbc8e814	-0.0061311815
8	0xbc48a379	-0.012246006

embeds.2.weight f4 [3, 3]
0	0x3b2a4050	0.0025978275
1	0xbbca34b9	-0.006170836
2	0x3bcff13d	0.0063458965
3	0x3b0d53a1	0.002156474
4	0x3b513dbe	0.003192767
5	0x3bf0f76f	0.007353715
6	0x3c26a532	0.010171222
7	0x3c883a4e	0.016629364
8	0x3c1222f9	0.008919471

embeds.3.weight f4 [3, 3]
0	0x3c0d44e6	0.008622384
1	0x3c75d879	0.015005224
2	0xbc50e70c	-0.012750398
3	0xbb9e6687	-0.0048339996
4	0xbbaa5696	-0.00519831
5	0xb636e41e	-2.7252895e-06
6	0xbc668df7	-0.014071933
7	0xbc0f0944	-0.008730236
8	0xbae82d02	-0.0017713609

embeds.4.weight f4 [3, 3]
0	0xbc5fcc8b	-0.013659607
1	0xbae47985	-0.0017431235
2	0x3b2bcdef	0.0026215275
3	0xbbc5d88b	-0.006037777
4	0xb806e892	-3.2164688e-05
5	0xbc182601	-0.009286405
6	0x3c1bdac7	0.00951261
7	0x3b9a5760	0.004710123
8	0xbc02d6c0	-0.007985771

embeds.5.weight f4 [3, 3]
0	0x3c46eefc	0.012141939
1	0xbc0f9676	-0.0087639
2	0xb9b7f6ca	-0.00035088352
3	0x3a569a13	0.0008186411
4	0x3bdeafab	0.0067958436
5	0xbc85fbc0	-0.016355395
6	0xbad5913c	-0.0016293894
7	0xbc460469	-0.012086012
8	0xbba3946f	-0.00499206

layers.0.weight f4 [150, 19]
0	0x3dbf3e7e	0.09338091
1	0xbdad0390	-0.08447945
2	0x3cff4ab8	0.031163558
3	0xbc896fe0	-0.016776979
4	0x3deed49a	0.11661644
5	0x3ce62e08	0.028098121
6	0x3d972e82	0.073819175
7	0xbac34b00	-0.0014899671
8	0x3d29c15c	0.041444167
9	0x3e25deb5	0.16198237
10	0xbcc2a070	-0.023758143
11	0x3e04a2d3	0.12952738
12	0x3e512483	0.20424084
13	0xbd4e4574	-0.050359204
14	0x3e2e2603	0.17006688
15	0xbdb42884	-0.0879679
16	0xbe41f483	-0.1894093
17	0x3c6ac860	0.01433
18	0x3c8b70d0	0.017021567
19	0x3e3fee69	0.1874329
20	0xbe1346f1	-0.14382531
21	0xbd6cbb9c	-0.057796106
22	0xbe2cfafa	-0.16892615
23	0x3d845c9a	0.06462975
24	0xbe0e23e0	-0.13880873
25	0x3e20f857	0.15719734
26	0xb9b4b800	-0.00034469366
27	0x3e22b1ef	0.15888189
28	0x3e3ea047	0.18615828
29	0x3e2cda59	0.16880168
30	0x3e5f9bed	0.21836825
31	0x3da83a2a	0.08214219
32	0xbd590af8	-0.052988976
33	0x3e4b02a9	0.19825234
34	0xbe00b0be	-0.12567422
35	0x3e4a4515	0.19752915
36	0x3b768c00	0.0037620068
37	0xbdd27692	-0.10276522
38	0xbe218184	-0.15772063
39	0xbdcebf88	-0.100951254
40	0x3e3476dd	0.17623468
41	0x3e5fc689	0.21853079
42	0xbe5f606a	-0.21814123
43	0x3d39f8f4	0.045403436
44	0xbdbdcba4	-0.09267357
45	0xbda32504	-0.079660445
46	0x3e5ad95b	0.21371977
47	0xbd8769d6	-0.066119835
48	0xbdd66fb3	-0.10470524
49	0xbe0ec660	-0.13942862
50	0xbd8000f8	-0.06250185
51	0xbe18f0c8	-0.14935601
52	0x3d99d106	0.07510571
53	0xbd9bf336	-0.07614748
54	0xbe2cafda	-0.16863957
55	0x3bd77540	0.0065752566
56	0xbd2c280c	-0.04203038
57	0x3dcbbbd6	0.09947936
58	0x3e1a56c7	0.15072165
59	0xbe2c7603	-0.16841893
60	0x3cc84588	0.024447218
61	0x3cc663c8	0.024217501
62	0xbe2f27ee	-0.17105076
63	0x3d32090c	0.04346566
64	0x3d3daf5c	0.046309814
65	0x3e3aa085	0.18225296
66	0x3d27470c	0.04083924
67	0xbe5d7b5e	-0.21629092
68	0xbd433c6c	-0.047665045
69	0x3d889386	0.06668763
70	0x3e38f0d9	0.18060626
71	0x3e08f3cd	0.13374253
72	0x3e2acf7b	0.1668071
73	0x3cdab798	0.026698872
74	0x3d22a0f4	0.039704278
75	0xbcf19f88	-0.029495016
76	0x3db6d7ea	0.08927901
77	0xbdd87ddd	-0.105708815
78	0xbbd1b900	-0.0064002275
79	0xbe67d496	-0.22639689
80	0xbdfa21b3	-0.12213459
81	0x3e581fc5	0.21105869
82	0xbe3bae14	-0.18328124
83	0x3da47c3a	0.08031507
84	0xbc8120f8	-0.015762791
85	0x3e459e97	0.19298778
86	0x3d04a164	0.032380477
87	0x3e608775	0.21926673
88	0x3e18546d	0.14875956
89	0x3de34672	0.11097421
90	0xbccbc920	-0.024876177
91	0xbe424cbe	-0.18974587
92	0x3d89d986	0.067309424
93	0x3e581ad5	0.21103986
94	0x3e5f96f3	0.21834926
95	0xbcd37738	-0.025813684
96	0xbbad95a0	-0.0052973777
97	0xbbf2e9e0	-0.007413134
98	0x3e190ea7	0.14946996
99	0xbc903380	-0.017602682
100	0x3e43b29b	0.19111101
101	0x3e4a44d5	0.1975282
102	0x3dccf8e6	0.10008411
103	0x3e4075cd	0.18794937
104	0xbd180000	-0.037109375
105	0xbc67a030	-0.014137313
106	0x3e52ca75	0.20585044
107	0x3d173194	0.036912516
108	0xbdc18818	-0.09449786
109	0xbd2572f8	-0.040392846
110	0x3ca65840	0.020305753
111	0x3c7e0f20	0.015506536
112	0xbe0e4f54	-0.13897449
113	0x3e1481fd	0.14502712
114	0x3df47086	0.11935525
115	0xbe5c4374	-0.21510106
116	0xbe40dcb2	-0.18834189
117	0x3e1ee78f	0.1551802
118	0xbe5181f3	-0.20459728
119	0x3dc92db6	0.09823172
120	0x3de923ee	0.11383806
121	0xbdc385de	-0.095470175
122	0x3dc14d7e	0.094386086
123	0xbda6a356	-0.081366226
124	0x3bfd14a0	0.007723406
125	0xbe3ba11a	-0.18323174
126	0xbe4c074b	-0.19924657
127	0xbe0b399b	-0.13596193
128	0xbb957a20	-0.0045616776
129	0x3e4f498f	0.20242904
130	0xbe098e85	-0.13433273
131	0xbb5ffe80	-0.0034178793
132	0xbd505818	-0.050865263
133	0xbe2b843e	-0.16749665
134	0xbd1b399c	-0.037896737
135	0x3e1dcd01	0.15410234
136	0xbcc47c88	-0.023985162
137	0xbcc22820	-0.023700774
138	0xbe30fde5	-0.17284353
139	0x3e2b7367	0.16743241
140	0xbdc1fd36	-0.09472124
141	0xbe09ee77	-0.13469873
142	0x3e5025d7	0.20326935
143	0xbe037417	-0.12837254
144	0x3d80661e	0.06269477
145	0xbd1306b8	-0.03589508
146	0x3e387059	0.18011607
147	0xbaa77880	-0.0012777001
148	0xbe403f11	-0.18774058
149	0x3e59cbe7	0.21269189
150	0x3db8f64e	0.09031354
151	0x3de9eb72	0.11421861
152	0x3d9d5346	0.07681899
153	0xbd1d4fc8	-0.038406163
154	0xbe52ffcc	-0.20605391
155	0xbd72f71c	-0.059317693
156	0xbd875a7a	-0.06609054
157	0x3dbade96	0.09124486
158	0xbdabd64c	-0.08390483
159	0x3e5e11e9	0.2168652
160	0x3e4ccfc7	0.20001136
161	0xbe482f4a	-0.1954929
162	0x3c964250	0.018342167
163	0xbdc82494	-0.09772602
164	0xbde87b16	-0.11351602
165	0x3e32c441	0.17457677
166	0xbe0c38ea	-0.13693586
167	0xbd0144b4	-0.03155966
168	0xbd722368	-0.059115797
169	0x3df899aa	0.12138684
170	0x3e24eccb	0.16105954
171	0xbe124c10	-0.14286828
172	0xbdbf26d6	-0.09333579
173	0x3da901be	0.082522854
174	0x3d15128c	0.03639464
175	0xbd4cf704	-0.05004026
176	0xbe43d7ed	-0.19125338
177	0x3d8a92ae	0.06766258
178	0xbc3d8dd0	-0.011569455
179	0x3d8d8e96	0.06911962
180	0xbd7f88d4	-0.06238635
181	0x3d935eca	0.07195814
182	0xbd431b78	-0.047633618
183	0x3e18da2d	0.14926977
184	0x3e16e157	0.14734398
185	0x3de3c436	0.11121409
186	0x3e2b3da7	0.16722737
187	0xbe146f36	-0.14495549
188	0xbe62b221	-0.22138263
189	0xbb15bd80	-0.0022848547
190	0xbe5eb8e8	-0.21750224
191	0xbe65bc2d	-0.22435065
192	0xbdb46db4	-0.08809987
193	0x3e0293a3	0.12751631
194	0xbdfabc62	-0.122429624
195	0x3e1a5ae5	0.15073736
196	0xbce52da0	-0.027975857
197	0xbda7f4aa	-0.08200963
198	0xbe604579	-0.21901502
199	0xbe260c76	-0.16215691
200	0x3e1e4c1f	0.15458725
201	0x3e157a7d	0.14597507
202	0xbe11bfe0	-0.14233351
203	0x3d01ec0c	0.031719252
204	0xbe4b9790	-0.19882035
205	0x3dc9fde2	0.098628774
206	0x3d8f7c1a	0.07006092
207	0x3e07d29b	0.13263933
208	0x3e477897	0.19479595
209	0xbd9631ee	-0.07333742
210	0xbdf74e32	-0.120754614
211	0xbe552853	-0.20816164
212	0x3d18b0dc	0.03727804
213	0x3e3c766f	0.18404554
214	0x3e41c409	0.18922438
215	0x3e4ae06b	0.19812171
216	0xbe02eb9a	-0.12785187
217	0x3e65bf31	0.22436215
218	0xbc8bfda8	-0.017088726
219	0x3c033530	0.008008286
220	0x3d46a944	0.048501268
221	0xbe2ea124	-0.17053658
222	0x3c8bd208	0.017067924
223	0x3d9ae4a6	0.075631425
224	0x3d1f4dcc	0.038892552
225	0x3d85628e	0.065129384
226	0x3d32ed2c	0.043683216
227	0x3e394d6f	0.18095945
228	0x3dd6d346	0.10489516
229	0xbdb3989e	-0.08769344
230	0xbe6079d8	-0.2192148
231	0xbc468110	-0.012115732
232	0xbe0947dc	-0.13406318
233	0x3d9cdf0a	0.07659729
234	0x3e09a33d	0.13441177
235	0xbdc19d42	-0.09453823
236	0xbdb46298	-0.08807868
237	0x3e242657	0.1603025
238	0xbcef45e0	-0.029208124
239	0x3b2bf080	0.0026235878
240	0x3d54268c	0.051794574
241	0xbd3b972c	-0.045798466
242	0xbce58188	-0.028015867
243	0x3d487434	0.048938945
244	0x3de779a2	0.113024965
245	0x3ba768e0	0.0051089376
246	0xbcd16bf0	-0.025564164
247	0x3e5ebedb	0.21752493
248	0x3e4f0dc1	0.2022009
249	0x3d83358e	0.06406699
250	0xbdca1822	-0.09867884
251	0x3e464fa7	0.19366322
252	0xbe383536	-0.17989048
253	0x3d591c0c	0.053005263
254	0x3c849570	0.016184539
255	0xbe247e4e	-0.16063806

layers.0.bias f4 [150]
0	0x3c845f20	0.01615864
1	0x3e41235d	0.18861146
2	0xbd934452	-0.071907654
3	0x3da7b0f2	0.081880465
4	0x3e450981	0.19241907
5	0x3e0682d3	0.13135843
6	0x3e60e7ad	0.21963377
7	0x3dd23ea6	0.102658555
8	0xbd71de14	-0.05904968
9	0xbdf99524	-0.121866494
10	0xbe33c3c5	-0.17555149
11	0x3e154321	0.14576389
12	0x3dd30042	0.103027835
13	0x3dfdba02	0.12388994
14	0x3c46fb00	0.012144804
15	0x3d1cf284	0.03831722
16	0x3cbc4118	0.022980258
17	0xbe283435	-0.16426165
18	0xbe132cf0	-0.14372611
19	0xbde90898	-0.11378592
20	0xbe586ae3	-0.21134524
21	0x3e1e98ed	0.15488024
22	0xbdba953e	-0.09110497
23	0xbe06930f	-0.13142036
24	0x3e131415	0.1436313
25	0x3d7dbb1c	0.06194602
26	0x3dd389d6	0.103290245
27	0x3de1a182	0.11017133
28	0x3e42582f	0.18978952
29	0xba6fef00	-0.000915274
30	0x3d9d5766	0.076826856
31	0xbc790630	-0.015199229
32	0xbd89e38e	-0.06732856
33	0xbe101670	-0.14071059
34	0xbe09a6e1	-0.13442566
35	0xbd6ee008	-0.05831912
36	0x3e63642b	0.2220618
37	0x3e56d145	0.20978267
38	0x3e4c19e9	0.19931759
39	0xbe12ec10	-0.14347863
40	0x3dd079b2	0.101794615
41	0x3e0e8309	0.13917173
42	0xbdb15c32	-0.08660163
43	0x3cbd2768	0.02309008
44	0xbe06a2e4	-0.13148075
45	0xbc420510	-0.011842027
46	0x3de2387a	0.11045928
47	0xbe40bf58	-0.18822992
48	0x3dd21c3a	0.1025929
49	0x3d83e9da	0.06441088
50	0x3d1ed094	0.038773134
51	0x3e00524b	0.12531392
52	0xbe28c604	-0.16481787
53	0xbd1971f0	-0.037462175
54	0xbe15620e	-0.14588186
55	0xbb651c00	-0.0034959316
56	0xbdb18ee2	-0.08669831
57	0xbdff81bd	-0.124759175
58	0x3e645b71	0.22300507
59	0xbe3eb92a	-0.18625322
60	0x3e04b315	0.1295894
61	0x3e1ec4b1	0.1550472
62	0xbd9da910	-0.07698262
63	0xbcd4ae40	-0.025961995
64	0x3db4c4de	0.08826612
65	0xbd854264	-0.06506804
66	0xbe445160	-0.19171667
67	0x3e53073d	0.2060823
68	0x3e41a587	0.189108
69	0xbdb3bcec	-0.08776268
70	0xbdbf4f9c	-0.09341356
71	0x3dbec736	0.0931534
72	0x3e365a15	0.17807801
73	0xbdde4957	-0.10853832
74	0x3e4c0665	0.19924314
75	0xbd40ac18	-0.04703912
76	0xbe2913cc	-0.16511458
77	0xbc2477c0	-0.010038316
78	0xbe14a401	-0.14515688
79	0x3e0ebef9	0.13940038
80	0x3cce8708	0.025210872
81	0x3d712cac	0.058880493
82	0x3d9dc8da	0.07704325
83	0xbdce7eca	-0.10082777
84	0xbe3a7268	-0.18207705
85	0x3e6a33c5	0.22871311
86	0xbdfab2bc	-0.12241122
87	0xbe1fe55a	-0.15614834
88	0x3e0bfbd7	0.13670288
89	0x3e19009b	0.14941637
90	0xbd9004a4	-0.07032135
91	0x3e09e495	0.13466103
92	0xbd2cf10c	-0.042222068
93	0x3e4ed009	0.20196547
94	0xbd8ead5e	-0.06966661
95	0xbc7e9c20	-0.015540153
96	0xbe313421	-0.17305042
97	0x3c803310	0.015649348
98	0xbde75e91	-0.11297334
99	0xbdf8eb3f	-0.12154245
100	0xbde29697	-0.11063879
101	0x3d868b6a	0.0656956
102	0xbaca4400	-0.0015431643
103	0x3e112e85	0.14177902
104	0x3da1cfa6	0.07900934
105	0x3df2f8c2	0.11863853
106	0xbd0acb48	-0.03388527
107	0x3d74034c	0.059573457
108	0xbdb06614	-0.0861322
109	0x3e396a63	0.1810699
110	0xbe5dd1d2	-0.21662071
111	0x3dff193a	0.124559835
112	0xbd097e90	-0.033567965
113	0x3e0783dd	0.13233896
114	0x3cff3478	0.031152949
115	0x3e472401	0.19447328
116	0xbe2e45d8	-0.17018831
117	0x3e31ab11	0.17350413
118	0x3e0f196f	0.13974546
119	0xbe318ef1	-0.17339684
120	0xbca3eca8	-0.020010307
121	0x3e06ce21	0.1316457
122	0xbd194b0c	-0.037425086
123	0x3e2d17af	0.16903566
124	0xbd9acfd4	-0.07559171
125	0xbde9db24	-0.11418751
126	0xbdc07174	-0.093966395
127	0x3e56ab53	0.20963793
128	0x3e623827	0.22091733
129	0x3e022d03	0.12712483
130	0x3dfcd962	0.1234615
131	0xbe440166	-0.19141158
132	0x3db9a8c2	0.09065391
133	0xbe217631	-0.15767743
134	0xbdc7d2d2	-0.09757008
135	0xbe395071	-0.18097092
136	0x3dc77c3a	0.09740491
137	0x3e32c5d7	0.17458282
138	0x3e01b40b	0.12666337
139	0xbdf5fafd	-0.12010763
140	0xbc9c9510	-0.019114047
141	0x3dbd0876	0.092301294
142	0xbcde6fd8	-0.02715294
143	0x3e339fd7	0.17541443
144	0x3e2363bf	0.15956019
145	0x3defcaf6	0.117086336
146	0xbe635e6f	-0.22203992
147	0xbc9d90a0	-0.019234002
148	0x3da0ca0e	0.07851039
149	0xbe554a0a	-0.20829025

layers.2.weight f4 [150]
0	0x3f800000	1.0
1	0x3f800000	1.0
2	0x3f800000	1.0
3	0x3f800000	1.0
4	0x3f800000	1.0
5	0x3f800000	1.0
6	0x3f800000	1.0
7	0x3f800000	1.0
8	0x3f800000	1.0
9	0x3f800000	1.0
10	0x3f800000	1.0
11	0x3f800000	1.0
12	0x3f800000	1.0
13	0x3f800000	1.0
14	0x3f800000	1.0
15	0x3f800000	1.0
16	0x3f800000	1.0
17	0x3f800000	1.0
18	0x3f800000	1.0
19	0x3f800000	1.0
20	0x3f800000	1.0
21	0x3f800000	1.0
22	0x3f800000	1.0
23	0x3f800000	1.0
24	0x3f800000	1.0
25	0x3f800000	1.0
26	0x3f800000	1.0
27	0x3f800000	1.0
28	0x3f800000	1.0
29	0x3f800000	1.0
30	0x3f800000	1.0
31	0x3f800000	1.0
32	0x3f800000	1.0
33	0x3f800000	1.0
34	0x3f800000	1.0
35	0x3f800000	1.0
36	0x3f800000	1.0
37	0x3f800000	1.0
38	0x3f800000	1.0
39	0x3f800000	1.0
40	0x3f800000	1.0
41	0x3f800000	1.0
42	0x3f800000	1.0
43	0x3f800000	1.0
44	0x3f800000	1.0
45	0x3f800000	1.0
46	0x3f800000	1.0
47	0x3f800000	1.0
48	0x3f800000	1.0
49	0x3f800000	1.0
50	0x3f800000	1.0
51	0x3f800000	1.0
52	0x3f800000	1.0
53	0x3f800000	1.0
54	0x3f800000	1.0
55	0x3f800000	1.0
56	0x3f800000	1.0
57	0x3f800000	1.0
58	0x3f800000	1.0
59	0x3f800000	1.0
60	0x3f800000	1.0
61	0x3f800000	1.0
62	0x3f800000	1.0
63	0x3f800000	1.0
64	0x3f800000	1.0
65	0x3f800000	1.0
66	0x3f800000	1.0
67	0x3f800000	1.0
68	0x3f800000	1.0
69	0x3f800000	1.0
70	0x3f800000	1.0
71	0x3f800000	1.0
72	0x3f800000	1.0
73	0x3f800000	1.0
74	0x3f800000	1.0
75	0x3f800000	1.0
76	0x3f800000	1.0
77	0x3f800000	1.0
78	0x3f800000	1.0
79	0x3f800000	1.0
80	0x3f800000	1.0
81	0x3f800000	1.0
82	0x3f800000	1.0
83	0x3f800000	1.0
84	0x3f800000	1.0
85	0x3f800000	1.0
86	0x3f800000	1.0
87	0x3f800000	1.0
88	0x3f800000	1.0
89	0x3f800000	1.0
90	0x3f800000	1.0
91	0x3f800000	1.0
92	0x3f800000	1.0
93	0x3f800000	1.0
94	0x3f800000	1.0
95	0x3f800000	1.0
96	0x3f800000	1.0
97	0x3f800000	1.0
98	0x3f800000	1.0
99	0x3f800000	1.0
100	0x3f800000	1.0
101	0x3f800000	1.0
102	0x3f800000	1.0
103	0x3f800000	1.0
104	0x3f800000	1.0
105	0x3f800000	1.0
106	0x3f800000	1.0
107	0x3f800000	1.0
108	0x3f800000	1.0
109	0x3f800000	1.0
110	0x3f800000	1.0
111	0x3f800000	1.0
112	0x3f800000	1.0
113	0x3f800000	1.0
114	0x3f800000	1.0
115	0x3f800000	1.0
116	0x3f800000	1.0
117	0x3f800000	1.0
118	0x3f800000	1.0
119	0x3f800000	1.0
120	0x3f800000	1.0
121	0x3f800000	1.0
122	0x3f800000	1.0
123	0x3f800000	1.0
124	0x3f800000	1.0
125	0x3f800000	1.0
126	0x3f800000	1.0
127	0x3f800000	1.0
128	0x3f800000	1.0
129	0x3f800000	1.0
130	0x3f800000	1.0
131	0x3f800000	1.0
132	0x3f800000	1.0
133	0x3f800000	1.0
134	0x3f800000	1.0
135	0x3f800000	1.0
136	0x3f800000	1.0
137	0x3f800000	1.0
138	0x3f800000	1.0
139	0x3f800000	1.0
140	0x3f800000	1.0
141	0x3f800000	1.0
142	0x3f800000	1.0
143	0x3f800000	1.0
144	0x3f800000	1.0
145	0x3f800000	1.0
146	0x3f800000	1.0
147	0x3f800000	1.0
148	0x3f800000	1.0
149	0x3f800000	1.0

layers.2.bias f4 [150]
0	0x00000000	0.0
1	0x00000000	0.0
2	0x00000000	0.0
3	0x00000000	0.0
4	0x00000000	0.0
5	0x00000000	0.0
6	0x00000000	0.0
7	0x00000000	0.0
8	0x00000000	0.0
9	0x00000000	0.0
10	0x00000000	0.0
11	0x00000000	0.0
12	0x00000000	0.0
13	0x00000000	0.0
14	0x00000000	0.0
15	0x00000000	0.0
16	0x00000000	0.0
17	0x00000000	0.0
18	0x00000000	0.0
19	0x00000000	0.0
20	0x00000000	0.0
21	0x00000000	0.0
22	0x00000000	0.0
23	0x00000000	0.0
24	0x00000000	0.0
25	0x00000000	0.0
26	0x00000000	0.0
27	0x00000000	0.0
28	0x00000000	0.0
29	0x00000000	0.0
30	0x00000000	0.0
31	0x00000000	0.0
32	0x00000000	0.0
33	0x00000000	0.0
34	0x00000000	0.0
35	0x00000000	0.0
36	0x00000000	0.0
37	0x00000000	0.0
38	0x00000000	0.0
39	0x00000000	0.0
40	0x00000000	0.0
41	0x00000000	0.0
42	0x00000000	0.0
43	0x00000000	0.0
44	0x00000000	0.0
45	0x00000000	0.0
46	0x00000000	0.0
47	0x00000000	0.0
48	0x00000000	0.0
49	0x00000000	0.0
50	0x00000000	0.0
51	0x00000000	0.0
52	0x00000000	0.0
53	0x00000000	0.0
54	0x00000000	0.0
55	0x00000000	0.0
56	0x00000000	0.0
57	0x00000000	0.0
58	0x00000000	0.0
59	0x00000000	0.0
60	0x00000000	0.0
61	0x00000000	0.0
62	0x00000000	0.0
63	0x00000000	0.0
64	0x00000000	0.0
65	0x00000000	0.0
66	0x00000000	0.0
67	0x00000000	0.0
68	0x00000000	0.0
69	0x00000000	0.0
70	0x00000000	0.0
71	0x00000000	0.0
72	0x00000000	0.0
73	0x00000000	0.0
74	0x00000000	0.0
75	0x00000000	0.0
76	0x00000000	0.0
77	0x00000000	0.0
78	0x00000000	0.0
79	0x00000000	0.0
80	0x00000000	0.0
81	0x00000000	0.0
82	0x00000000	0.0
83	0x00000000	0.0
84	0x00000000	0.0
85	0x00000000	0.0
86	0x00000000	0.0
87	0x00000000	0.0
88	0x00000000	0.0
89	0x00000000	0.0
90	0x00000000	0.0
91	0x00000000	0.0
92	0x00000000	0.0
93	0x00000000	0.0
94	0x00000000	0.0
95	0x00000000	0.0
96	0x00000000	0.0
97	0x00000000	0.0
98	0x00000000	0.0
99	0x00000000	0.0
100	0x00000000	0.0
101	0x00000000	0.0
102	0x00000000	0.0
103	0x00000000	0.0
104	0x00000000	0.0
105	0x00000000	0.0
106	0x00000000	0.0
107	0x00000000	0.0
108	0x00000000	0.0
109	0x00000000	0.0
110	0x00000000	0.0
111	0x00000000	0.0
112	0x00000000	0.0
113	0x00000000	0.0
114	0x00000000	0.0
115	0x00000000	0.0
116	0x00000000	0.0
117	0x00000000	0.0
118	0x00000000	0.0
119	0x00000000	0.0
120	0x00000000	0.0
121	0x00000000	0.0
122	0x00000000	0.0
123	0x00000000	0.0
124	0x00000000	0.0
125	0x00000000	0.0
126	0x00000000	0.0
127	0x00000000	0.0
128	0x00000000	0.0
129	0x00000000	0.0
130	0x00000000	0.0
131	0x00000000	0.0
132	0x00000000	0.0
133	0x00000000	0.0
134	0x00000000	0.0
135	0x00000000	0.0
136	0x00000000	0.0
137	0x00000000	0.0
138	0x00000000	0.0
139	0x00000000	0.0
140	0x00000000	0.0
141	0x00000000	0.0
142	0x00000000	0.0
143	0x00000000	0.0
144	0x00000000	0.0
145	0x00000000	0.0
146	0x00000000	0.0
147	0x00000000	0.0
148	0x00000000	0.0
149	0x00000000	0.0

layers.2.running_mean f4 [150]
0	0x00000000	0.0
1	0x00000000	0.0
2	0x00000000	0.0
3	0x00000000	0.0
4	0x00000000	0.0
5	0x00000000	0.0
6	0x00000000	0.0
7	0x00000000	0.0
8	0x00000000	0.0
9	0x00000000	0.0
10	0x00000000	0.0
11	0x00000000	0.0
12	0x00000000	0.0
13	0x00000000	0.0
14	0x00000000	0.0
15	0x00000000	0.0
16	0x00000000	0.0
17	0x00000000	0.0
18	0x00000000	0.0
19	0x00000000	0.0
20	0x00000000	0.0
21	0x00000000	0.0
22	0x00000000	0.0
23	0x00000000	0.0
24	0x00000000	0.0
25	0x00000000	0.0
26	0x00000000	0.0
27	0x00000000	0.0
28	0x00000000	0.0
29	0x00000000	0.0
30	0x00000000	0.0
31	0x00000000	0.0
32	0x00000000	0.0
33	0x00000000	0.0
34	0x00000000	0.0
35	0x00000000	0.0
36	0x00000000	0.0
37	0x00000000	0.0
38	0x00000000	0.0
39	0x00000000	0.0
40	0x00000000	0.0
41	0x00000000	0.0
42	0x00000000	0.0
43	0x00000000	0.0
44	0x00000000	0.0
45	0x00000000	0.0
46	0x00000000	0.0
47	0x00000000	0.0
48	0x00000000	0.0
49	0x00000000	0.0
50	0x00000000	0.0
51	0x00000000	0.0
52	0x00000000	0.0
53	0x00000000	0.0
54	0x00000000	0.0
55	0x00000000	0.0
56	0x00000000	0.0
57	0x00000000	0.0
58	0x00000000	0.0
59	0x00000000	0.0
60	0x00000000	0.0
61	0x00000000	0.0
62	0x00000000	0.0
63	0x00000000	0.0
64	0x00000000	0.0
65	0x00000000	0.0
66	0x00000000	0.0
67	0x00000000	0.0
68	0x00000000	0.0
69	0x00000000	0.0
70	0x00000000	0.0
71	0x00000000	0.0
72	0x00000000	0.0
73	0x00000000	0.0
74	0x00000000	0.0
75	0x00000000	0.0
76	0x00000000	0.0
77	0x00000000	0.0
78	0x00000000	0.0
79	0x00000000	0.0
80	0x00000000	0.0
81	0x00000000	0.0
82	0x00000000	0.0
83	0x00000000	0.0
84	0x00000000	0.0
85	0x00000000	0.0
86	0x00000000	0.0
87	0x00000000	0.0
88	0x00000000	0.0
89	0x00000000	0.0
90	0x00000000	0.0
91	0x00000000	0.0
92	0x00000000	0.0
93	0x00000000	0.0
94	0x00000000	0.0
95	0x00000000	0.0
96	0x00000000	0.0
97	0x00000000	0.0
98	0x00000000	0.0
99	0x00000000	0.0
100	0x00000000	0.0
101	0x00000000	0.0
102	0x00000000	0.0
103	0x00000000	0.0
104	0x00000000	0.0
105	0x00000000	0.0
106	0x00000000	0.0
107	0x00000000	0.0
108	0x00000000	0.0
109	0x00000000	0.0
110	0x00000000	0.0
111	0x00000000	0.0
112	0x00000000	0.0
113	0x00000000	0.0
114	0x00000000	0.0
115	0x00000000	0.0
116	0x00000000	0.0
117	0x00000000	0.0
118	0x00000000	0.0
119	0x00000000	0.0
120	0x00000000	0.0
121	0x00000000	0.0
122	0x00000000	0.0
123	0x00000000	0.0
124	0x00000000	0.0
125	0x00000000	0.0
126	0x00000000	0.0
127	0x00000000	0.0
128	0x00000000	0.0
129	0x00000000	0.0
130	0x00000000	0.0
131	0x00000000	0.0
132	0x00000000	0.0
133	0x00000000	0.0
134	0x00000000	0.0
135	0x00000000	0.0
136	0x00000000	0.0
137	0x00000000	0.0
138	0x00000000	0.0
139	0x00000000	0.0
140	0x00000000	0.0
141	0x00000000	0.0
142	0x00000000	0.0
143	0x00000000	0.0
144	0x00000000	0.0
145	0x00000000	0.0
146	0x00000000	0.0
147	0x00000000	0.0
148	0x00000000	0.0
149	0x00000000	0.0

layers.2.running_var f4 [150]
0	0x3f800000	1.0
1	0x3f800000	1.0
2	0x3f800000	1.0
3	0x3f800000	1.0
4	0x3f800000	1.0
5	0x3f800000	1.0
6	0x3f800000	1.0
7	0x3f800000	1.0
8	0x3f800000	1.0
9	0x3f800000	1.0
10	0x3f800000	1.0
11	0x3f800000	1.0
12	0x3f800000	1.0
13	0x3f800000	1.0
14	0x3f800000	1.0
15	0x3f800000	1.0
16	0x3f800000	1.0
17	0x3f800000	1.0
18	0x3f800000	1.0
19	0x3f800000	1.0
20	0x3f800000	1.0
21	0x3f800000	1.0
22	0x3f800000	1.0
23	0x3f800000	1.0
24	0x3f800000	1.0
25	0x3f800000	1.0
26	0x3f800000	1.0
27	0x3f800000	1.0
28	0x3f800000	1.0
29	0x3f800000	1.0
30	0x3f800000	1.0
31	0x3f800000	1.0
32	0x3f800000	1.0
33	0x3f800000	1.0
34	0x3f800000	1.0
35	0x3f800000	1.0
36	0x3f800000	1.0
37	0x3f800000	1.0
38	0x3f800000	1.0
39	0x3f800000	1.0
40	0x3f800000	1.0
41	0x3f800000	1.0
42	0x3f800000	1.0
43	0x3f800000	1.0
44	0x3f800000	1.0
45	0x3f800000	1.0
46	0x3f800000	1.0
47	0x3f800000	1.0
48	0x3f800000	1.0
49	0x3f800000	1.0
50	0x3f800000	1.0
51	0x3f800000	1.0
52	0x3f800000	1.0
53	0x3f800000	1.0
54	0x3f800000	1.0
55	0x3f800000	1.0
56	0x3f800000	1.0
57	0x3f800000	1.0
58	0x3f800000	1.0
59	0x3f800000	1.0
60	0x3f800000	1.0
61	0x3f800000	1.0
62	0x3f800000	1.0
63	0x3f800000	1.0
64	0x3f800000	1.0
65	0x3f800000	1.0
66	0x3f800000	1.0
67	0x3f800000	1.0
68	0x3f800000	1.0
69	0x3f800000	1.0
70	0x3f800000	1.0
71	0x3f800000	1.0
72	0x3f800000	1.0
73	0x3f800000	1.0
74	0x3f800000	1.0
75	0x3f800000	1.0
76	0x3f800000	1.0
77	0x3f800000	1.0
78	0x3f800000	1.0
79	0x3f800000	1.0
80	0x3f800000	1.0
81	0x3f800000	1.0
82	0x3f800000	1.0
83	0x3f800000	1.0
84	0x3f800000	1.0
85	0x3f800000	1.0
86	0x3f800000	1.0
87	0x3f800000	1.0
88	0x3f800000	1.0
89	0x3f800000	1.0
90	0x3f800000	1.0
91	0x3f800000	1.0
92	0x3f800000	1.0
93	0x3f800000	1.0
94	0x3f800000	1.0
95	0x3f800000	1.0
96	0x3f800000	1.0
97	0x3f800000	1.0
98	0x3f800000	1.0
99	0x3f800000	1.0
100	0x3f800000	1.0
101	0x3f800000	1.0
102	0x3f800000	1.0
103	0x3f800000	1.0
104	0x3f800000	1.0
105	0x3f800000	1.0
106	0x3f800000	1.0
107	0x3f800000	1.0
108	0x3f800000	1.0
109	0x3f800000	1.0
110	0x3f800000	1.0
111	0x3f800000	1.0
112	0x3f800000	1.0
113	0x3f800000	1.0
114	0x3f800000	1.0
115	0x3f800000	1.0
116	0x3f800000	1.0
117	0x3f800000	1.0
118	0x3f800000	1.0
119	0x3f800000	1.0
120	0x3f800000	1.0
121	0x3f800000	1.0
122	0x3f800000	1.0
123	0x3f800000	1.0
124	0x3f800000	1.0
125	0x3f800000	1.0
126	0x3f800000	1.0
127	0x3f800000	1.0
128	0x3f800000	1.0
129	0x3f800000	1.0
130	0x3f800000	1.0
131	0x3f800000	1.0
132	0x3f800000	1.0
133	0x3f800000	1.0
134	0x3f800000	1.0
135	0x3f800000	1.0
136	0x3f800000	1.0
137	0x3f800000	1.0
138	0x3f800000	1.0
139	0x3f800000	1.0
140	0x3f800000	1.0
141	0x3f800000	1.0
142	0x3f800000	1.0
143	0x3f800000	1.0
144	0x3f800000	1.0
145	0x3f800000	1.0
146	0x3f800000	1.0
147	0x3f800000	1.0
148	0x3f800000	1.0
149	0x3f800000	1.0

layers.3.weight f4 [50, 150]
0	0xbd8b4e51	-0.06802047
1	0xbd81784b	-0.06321772
2	0x3d9fe84a	0.078079775
3	0xbd8c762e	-0.068584785
4	0x3d6685ec	0.05628006
5	0x3c24ebe8	0.01006601
6	0xbd856742	-0.065138355
7	0xbbb72250	-0.005588807
8	0x3d797ea8	0.060911804
9	0x3a524e80	0.00080225617
10	0xbce80406	-0.028322231
11	0x3d98e7c8	0.07466084
12	0x3d882d04	0.06649211
13	0xbd8deb5e	-0.06929658
14	0xbab82fc0	-0.0014052317
15	0x3c7f3e90	0.015578881
16	0x3aa36040	0.0012464598
17	0x3d8c06cc	0.06837234
18	0xbd330867	-0.043709185
19	0x3d60f024	0.054916516
20	0xbd41564a	-0.047201432
21	0xbd8abf3a	-0.06774755
22	0xbd4ea250	-0.050447762
23	0x3d9108dc	0.07081768
24	0x3d69eb0c	0.057108924
25	0x3d32aa78	0.043619603
26	0x3c8824b0	0.016619056
27	0xbd1d246c	-0.038364813
28	0xbd9a0b4c	-0.07521686
29	0xbd3b5005	-0.04573061
30	0xbd85460a	-0.065074995
31	0x3da38fa2	0.0798638
32	0x3cf86024	0.03031928
33	0xbc8514e0	-0.016245306
34	0xbd0db372	-0.03459496
35	0xbc27e0c0	-0.010246456
36	0xbcfddc12	-0.030988727
37	0xbc6e8c68	-0.014559843
38	0xbd735368	-0.059405714
39	0x3bf8a550	0.007588066
40	0xbd34f968	-0.044183165
41	0xbd1df7b3	-0.038566303
42	0xbd424e6c	-0.04743807
43	0xbcc6bd36	-0.024260145
44	0xbd5a736c	-0.05333273
45	0xbd54910c	-0.05189614
46	0x3d35b024	0.044357434
47	0x3d7cd218	0.0617238
48	0x3cd5c14c	0.026093148
49	0xbc9e8620	-0.019351065
50	0xbcf31d26	-0.029676985
51	0x3da2f0fc	0.0795612
52	0xbd8932f4	-0.06699172
53	0x3d98fe56	0.07470386
54	0x3d65e2bc	0.056124434
55	0xbd015a61	-0.031580333
56	0xbda4b6ec	-0.08042702
57	0xbd768638	-0.060186595
58	0xbda54aa5	-0.08070878
59	0x3d5eb504	0.05437185
60	0xbcffdc80	-0.031233072
61	0xbd7b51e7	-0.061357405
62	0x3d77a2f8	0.060458153
63	0xbd94662b	-0.072460495
64	0x3c536ad0	0.012903884
65	0xbb1deb00	-0.002409637
66	0x3d4d99b4	0.05019541
67	0x3d21397a	0.039361455
68	0xbbeff2c0	-0.007322639
69	0x3cd6fd5c	0.026243858
70	0x3d90106a	0.07034381
71	0x3baf1580	0.005343139
72	0x3cd4ace8	0.025961354
73	0x3cdaa984	0.02669216
74	0xbd558902	-0.052132614
75	0xbd1320eb	-0.035920065
76	0x3d10fd56	0.03539785
77	0x3c3945b8	0.011308126
78	0x3d92599a	0.071459964
79	0xbda380d9	-0.0798356
80	0xbd4b4fe2	-0.04963673
81	0x3cf8d950	0.03037706
82	0xbbeda490	-0.0072522834
83	0xbd3c51a8	-0.04597631
84	0xbd219ee2	-0.039458163
85	0xbd9ce1bc	-0.07660243
86	0x3d5d0af4	0.053965524
87	0xba8c8bc0	-0.0010722801
88	0x3bfeb750	0.0077733174
89	0x3cdce02c	0.026962362
90	0x39f56700	0.00046806782
91	0xbc5c94a0	-0.013463169
92	0xbd4da45b	-0.05020557
93	0xbd81a69a	-0.06330605
94	0xbb8ced90	-0.0043007806
95	0x3c8b6260	0.017014682
96	0x3d8fbd98	0.07018584
97	0x3d974adc	0.07387325
98	0xbda1617d	-0.078799225
99	0xbd5439e8	-0.051813036
100	0xbd751772	-0.059836812
101	0xbd5f9ab8	-0.05459091
102	0xbd5dc656	-0.054144226
103	0x3d1951b8	0.03743145
104	0x3c83c8a8	0.016086891
105	0x3d62e418	0.05539331
106	0x3d83d610	0.064373136
107	0x3c1b40a8	0.0094758645
108	0xbd39c851	-0.045357052
109	0xbd0160a7	-0.031586315
110	0xbd5cbc55	-0.053890545
111	0xbb396060	-0.0028286204
112	0x3c8e8e30	0.017401785
113	0xbcced71c	-0.025249057
114	0x3d971f5e	0.0737903
115	0xbc05fc00	-0.008177757
116	0xbd95e18a	-0.07318409
117	0x3cf2a664	0.029620357
118	0x3d9244da	0.07142039
119	0xbd377963	-0.044793498
120	0xbb588bc0	-0.0033042282
121	0x3d1f7478	0.038929433
122	0x3d46b568	0.048512846
123	0xbd256338	-0.040377825
124	0xbb4ff600	-0.003173232
125	0x3d479d2c	0.048733875
126	0xbd7ecd68	-0.06220761
127	0x3bc38810	0.0059671476
128	0xbd8abb6f	-0.06774031
129	0xbacb4f80	-0.0015511364
130	0xbd9305a0	-0.07178807
131	0xbd781f46	-0.0605767
132	0xbd7a4344	-0.061099306
133	0x3cda005c	0.0266115
134	0x3d705ad8	0.058680385
135	0x3d13621e	0.035982244
136	0x3c5a2e58	0.013316713
137	0x3d13a00e	0.036041312
138	0x3c222d50	0.009898499
139	0xbc274bd0	-0.010210946
140	0xbd9d1fdc	-0.07672092
141	0x3d29e258	0.041475624
142	0xbca060a2	-0.019577328
143	0x3d63ef24	0.055647984
144	0x3c435000	0.011920929
145	0xbd59c4eb	-0.05316631
146	0x3cc6c03c	0.024261586
147	0xbd9e10af	-0.07718026
148	0x3ce7a84c	0.028278492
149	0xbc8742f4	-0.016511418
150	0x3be9def0	0.007137172
151	0xbd76e640	-0.060278177
152	0x3cfda308	0.030961528
153	0x3d3e5630	0.046468914
154	0x3c439ea0	0.011939675
155	0x3d38fd34	0.04516335
156	0x3d116a2a	0.035501637
157	0xbc557aa8	-0.013029732
158	0xbc9fe86c	-0.019520007
159	0xbd0535ee	-0.032522134
160	0xbd8ee2f1	-0.069768794
161	0xbd2a810d	-0.04162698
162	0x3d6a01e4	0.05713071
163	0xbd18c27c	-0.03729485
164	0x3c9bfdd8	0.01904194
165	0xbd9a6baa	-0.075400665
166	0x3d2c936a	0.042132773
167	0xbc2940e0	-0.010330409
168	0xbd040000	-0.032226562
169	0xbb0206a0	-0.0019840375
170	0xbd50d371	-0.050982896
171	0x3cfa3f30	0.030547708
172	0x3d955e86	0.072934195
173	0xbd044bf1	-0.032298986
174	0xbcff4a20	-0.031163275
175	0xbd33c6e5	-0.043890852
176	0x3d381b94	0.044948176
177	0x3d5a734c	0.053332612
178	0x3d980dae	0.07424484
179	0x3da51e5e	0.08062433
180	0xbd8814f1	-0.06644619
181	0xbd967c9e	-0.073479876
182	0xbd63564a	-0.055502214
183	0xbcc4efe8	-0.024040177
184	0xbda31031	-0.07962073
185	0xbc504168	-0.012710907
186	0x3d8097c0	0.06278944
187	0xbb01f1e0	-0.0019828007
188	0xbd444afa	-0.047923066
189	0xbca4e86e	-0.020130362
190	0xbd9c0edd	-0.076200224
191	0xbd319644	-0.043356195
192	0x3ce42770	0.027850837
193	0xbda0fdda	-0.07860918
194	0xbd95f125	-0.07321385
195	0x3d84c4b6	0.06482832
196	0xbce62bae	-0.028097
197	0x3d47e2b0	0.04880017
198	0x3d95130e	0.07279025
199	0x3d7bd12c	0.06147878
200	0x3d7d4690	0.06183487
201	0x3ccb1b34	0.024793245
202	0xbd66e758	-0.05637297
203	0xbc613460	-0.013745397
204	0xbb692d40	-0.003557995
205	0xbda6ad9a	-0.081385806
206	0xbd773224	-0.060350552
207	0xbbd65c00	-0.006541729
208	0x3cb6f1c0	0.022332072
209	0xbd5047e4	-0.05084981
210	0xbd7a1dd1	-0.06106359
211	0x3d577090	0.052597582
212	0x3c8c4f68	0.017127708
213	0xbc5c3208	-0.013439663
214	0x3c824380	0.015901327
215	0x3c91bfb0	0.017791599
216	0x3d94dde8	0.07268888
217	0xbd2f1b54	-0.04275067
218	0xbda3eee6	-0.08004551
219	0xbcecdb14	-0.028913058
220	0x3c627220	0.013821155
221	0xbd9493f7	-0.072547846
222	0x3ca9c040	0.020721555
223	0xbcc72612	-0.024310146
224	0x3d6f594c	0.05843477
225	0x3d25ff7a	0.040526845
226	0x3c420ea0	0.011844307
227	0x3d20b35a	0.039233543
228	0xbd703162	-0.058640845
229	0xbc73f1d0	-0.014889196
230	0x3d94cb60	0.07265353
231	0x3d8f47cc	0.06996116
232	0x3d7bd150	0.061478913
233	0xbd914519	-0.070932575
234	0xbd51be8e	-0.051207118
235	0x3d0fd146	0.035111688
236	0x3d5c3678	0.053762883
237	0x3d11506e	0.035477094
238	0xbd6a2c58	-0.057171196
239	0xbd0a347e	-0.033741467
240	0xbd9c4f23	-0.07632282
241	0xbc53f228	-0.0129361525
242	0x3d033916	0.032036863
243	0x3d8d08e4	0.068864614
244	0x3c7c7c08	0.015410431
245	0x3d9f7cee	0.077875
246	0x3d68f134	0.056870654
247	0xbbffb0e0	-0.0078030676
248	0x3ce10e0c	0.027472518
249	0x3da62350	0.08112204
250	0x3ca60554	0.020266213
251	0xbb0447c0	-0.0020184368
252	0x3cf5c010	0.02999881
253	0xbc7f8a48	-0.015596934
254	0xbd4c3ef4	-0.049864724
255	0x3d373290	0.044725955

layers.3.bias f4 [50]
0	0x3d1fcd1e	0.039013974
1	0x3d7f9450	0.0623973
2	0x3d4d9f28	0.05020061
3	0xbc9530b0	-0.018211693
4	0x3d9621ea	0.07330687
5	0xbd3bb317	-0.04582509
6	0xbce84182	-0.028351549
7	0xbd93e528	-0.072214425
8	0x3c56b8e0	0.013105601
9	0x3d970a58	0.0737502
10	0xbd41d8d4	-0.047325924
11	0xbd454790	-0.04816395
12	0xbce4e18e	-0.027939584
13	0xbd855cb9	-0.06511826
14	0xbd076c8c	-0.033062503
15	0x3d5c2dc0	0.053754568
16	0x3d10a3f8	0.035312623
17	0xbc312030	-0.010810897
18	0x3ca9f624	0.020747252
19	0x3da495fa	0.08036418
20	0xbd4e05d8	-0.05029854
21	0x3b068900	0.0020528436
22	0x3d891ca8	0.06694919
23	0x3c83fb90	0.016111165
24	0xbd6ef4fd	-0.058339108
25	0xbd945c45	-0.072441615
26	0xbd9779a7	-0.0739625
27	0x3bef6e00	0.007306814
28	0xbcdfd91e	-0.02732521
29	0x3da11514	0.078653485
30	0xbd1f5924	-0.03890337
31	0x3d420c1c	0.04737483
32	0xbd28e172	-0.041230626
33	0x3d93f8a2	0.07225157
34	0x3d0586ea	0.032599367
35	0x3d52cf70	0.05146736
36	0x3c4083d0	0.011750177
37	0x3d3d38c0	0.0461967
38	0xbac2a140	-0.0014849082
39	0xbcb9dd9a	-0.022688676
40	0xbbcc15c0	-0.0062281787
41	0xbda2d26f	-0.07950293
42	0xbbe60400	-0.00701952
43	0xbda1f8da	-0.07908793
44	0x3d357498	0.044300646
45	0xbd2ab4fb	-0.041676503
46	0x3d0223ba	0.031772353
47	0x3c99ef40	0.018790841
48	0x3d85b8ae	0.065293655
49	0x3d889056	0.06668155

layers.5.weight f4 [50]
0	0x3f800000	1.0
1	0x3f800000	1.0
2	0x3f800000	1.0
3	0x3f800000	1.0
4	0x3f800000	1.0
5	0x3f800000	1.0
6	0x3f800000	1.0
7	0x3f800000	1.0
8	0x3f800000	1.0
9	0x3f800000	1.0
10	0x3f800000	1.0
11	0x3f800000	1.0
12	0x3f800000	1.0
13	0x3f800000	1.0
14	0x3f800000	1.0
15	0x3f800000	1.0
16	0x3f800000	1.0
17	0x3f800000	1.0
18	0x3f800000	1.0
19	0x3f800000	1.0
20	0x3f800000	1.0
21	0x3f800000	1.0
22	0x3f800000	1.0
23	0x3f800000	1.0
24	0x3f800000	1.0
25	0x3f800000	1.0
26	0x3f800000	1.0
27	0x3f800000	1.0
28	0x3f800000	1.0
29	0x3f800000	1.0
30	0x3f800000	1.0
31	0x3f800000	1.0
32	0x3f800000	1.0
33	0x3f800000	1.0
34	0x3f800000	1.0
35	0x3f800000	1.0
36	0x3f800000	1.0
37	0x3f800000	1.0
38	0x3f800000	1.0
39	0x3f800000	1.0
40	0x3f800000	1.0
41	0x3f800000	1.0
42	0x3f800000	1.0
43	0x3f800000	1.0
44	0x3f800000	1.0
45	0x3f800000	1.0
46	0x3f800000	1.0
47	0x3f800000	1.0
48	0x3f800000	1.0
49	0x3f800000	1.0

layers.5.bias f4 [50]
0	0x00000000	0.0
1	0x00000000	0.0
2	0x00000000	0.0
3	0x00000000	0.0
4	0x00000000	0.0
5	0x00000000	0.0
6	0x00000000	0.0
7	0x00000000	0.0
8	0x00000000	0.0
9	0x00000000	0.0
10	0x00000000	0.0
11	0x00000000	0.0
12	0x00000000	0.0
13	0x00000000	0.0
14	0x00000000	0.0
15	0x00000000	0.0
16	0x00000000	0.0
17	0x00000000	0.0
18	0x00000000	0.0
19	0x00000000	0.0
20	0x00000000	0.0
21	0x00000000	0.0
22	0x00000000	0.0
23	0x00000000	0.0
24	0x00000000	0.0
25	0x00000000	0.0
26	0x00000000	0.0
27	0x00000000	0.0
28	0x00000000	0.0
29	0x00000000	0.0
30	0x00000000	0.0
31	0x00000000	0.0
32	0x00000000	0.0
33	0x00000000	0.0
34	0x00000000	0.0
35	0x00000000	0.0
36	0x00000000	0.0
37	0x00000000	0.0
38	0x00000000	0.0
39	0x00000000	0.0
40	0x00000000	0.0
41	0x00000000	0.0
42	0x00000000	0.0
43	0x00000000	0.0
44	0x00000000	0.0
45	0x00000000	0.0
46	0x00000000	0.0
47	0x00000000	0.0
48	0x00000000	0.0
49	0x00000000	0.0

layers.5.running_mean f4 [50]
0	0x00000000	0.0
1	0x00000000	0.0
2	0x00000000	0.0
3	0x00000000	0.0
4	0x00000000	0.0
5	0x00000000	0.0
6	0x00000000	0.0
7	0x00000000	0.0
8	0x00000000	0.0
9	0x00000000	0.0
10	0x00000000	0.0
11	0x00000000	0.0
12	0x00000000	0.0
13	0x00000000	0.0
14	0x00000000	0.0
15	0x00000000	0.0
16	0x00000000	0.0
17	0x00000000	0.0
18	0x00000000	0.0
19	0x00000000	0.0
20	0x00000000	0.0
21	0x00000000	0.0
22	0x00000000	0.0
23	0x00000000	0.0
24	0x00000000	0.0
25	0x00000000	0.0
26	0x00000000	0.0
27	0x00000000	0.0
28	0x00000000	0.0
29	0x00000000	0.0
30	0x00000000	0.0
31	0x00000000	0.0
32	0x00000000	0.0
33	0x00000000	0.0
34	0x00000000	0.0
35	0x00000000	0.0
36	0x00000000	0.0
37	0x00000000	0.0
38	0x00000000	0.0
39	0x00000000	0.0
40	0x00000000	0.0
41	0x00000000	0.0
42	0x00000000	0.0
43	0x00000000	0.0
44	0x00000000	0.0
45	0x00000000	0.0
46	0x00000000	0.0
47	0x00000000	0.0
48	0x00000000	0.0
49	0x00000000	0.0

layers.5.running_var f4 [50]
0	0x3f800000	1.0
1	0x3f800000	1.0
2	0x3f800000	1.0
3	0x3f800000	1.0
4	0x3f800000	1.0
5	0x3f800000	1.0
6	0x3f800000	1.0
7	0x3f800000	1.0
8	0x3f800000	1.0
9	0x3f800000	1.0
10	0x3f800000	1.0
11	0x3f800000	1.0
12	0x3f800000	1.0
13	0x3f800000	1.0
14	0x3f800000	1.0
15	0x3f800000	1.0
16	0x3f800000	1.0
17	0x3f800000	1.0
18	0x3f800000	1.0
19	0x3f800000	1.0
20	0x3f800000	1.0
21	0x3f800000	1.0
22	0x3f800000	1.0
23	0x3f800000	1.0
24	0x3f800000	1.0
25	0x3f800000	1.0
26	0x3f800000	1.0
27	0x3f800000	1.0
28	0x3f800000	1.0
29	0x3f800000	1.0
30	0x3f800000	1.0
31	0x3f800000	1.0
32	0x3f800000	1.0
33	0x3f800000	1.0
34	0x3f800000	1.0
35	0x3f800000	1.0
36	0x3f800000	1.0
37	0x3f800000	1.0
38	0x3f800000	1.0
39	0x3f800000	1.0
40	0x3f800000	1.0
41	0x3f800000	1.0
42	0x3f800000	1.0
43	0x3f800000	1.0
44	0x3f800000	1.0
45	0x3f800000	1.0
46	0x3f800000	1.0
47	0x3f800000	1.0
48	0x3f800000	1.0
49	0x3f800000	1.0

layers.6.weight f4 [2, 50]
0	0xbe0fb06c	-0.14032143
1	0xbdbea41e	-0.093086466
2	0xbd670a4e	-0.05640631
3	0x3d1fb3c4	0.038989797
4	0xbcec4b28	-0.028844431
5	0x3cf43028	0.029808119
6	0x3d90bf82	0.07067777
7	0x3ccc9258	0.024972126
8	0xbdf66ca0	-0.12032437
9	0xbd5178dc	-0.05114065
10	0x3ce515a8	0.027964428
11	0x3d8a542e	0.06754337
12	0x3dd0cd4c	0.10195407
13	0xbdb08964	-0.08619955
14	0xbd7fd086	-0.062454723
15	0x3e0c0429	0.13673462
16	0x3dc0e57a	0.09418769
17	0x3de4c1f6	0.111698076
18	0x3df84bea	0.121238545
19	0xba8c3700	-0.0010697544
20	0x3de8ee26	0.11373548
21	0xbe0f44c0	-0.1399107
22	0xbdf71783	-0.120650314
23	0x3d00ea74	0.031473592
24	0xbd97c81a	-0.07411213
25	0x3dabc66e	0.08387457
26	0xbd9c2686	-0.07624535
27	0x3dc63b30	0.09679258
28	0xbdcd6e93	-0.10030856
29	0xbd93b696	-0.0721256
30	0xbdd23686	-0.10264306
31	0x3d65f8bc	0.056145415
32	0x3d2eae14	0.042646483
33	0xbddec878	-0.1087808
34	0xbde64a1f	-0.11244606
35	0xbda9ea3a	-0.08296628
36	0xbe00bbd4	-0.1257165
37	0xbda1960a	-0.07889946
38	0x3de8dc26	0.11370115
39	0xbded5eda	-0.11590357
40	0x3e0b12c9	0.13581385
41	0x3d4ab594	0.049489573
42	0x3d349f34	0.04409714
43	0xbd76e94a	-0.060281076
44	0x3e086705	0.13320549
45	0x3df06756	0.1173846
46	0x3b96b300	0.004598975
47	0xba887c80	-0.001041308
48	0xbce19748	-0.027537957
49	0xbda4452c	-0.08021006
50	0x3c9a8c40	0.018865705
51	0x3e0ab1e5	0.13544424
52	0xbd3ad534	-0.045613483
53	0xbdcac6f0	-0.099012256
54	0xbd9d461f	-0.0767939
55	0xbd6a53c2	-0.057208784
56	0xbdaadb56	-0.08342616
57	0xbcc88f7c	-0.024482481
58	0xbe0afc78	-0.13572872
59	0xbd8c1403	-0.068397544
60	0xbc744960	-0.014910072
61	0x3d6e8b10	0.05823809
62	0x3dea3826	0.11436491
63	0xbddc3a38	-0.10753292
64	0x3bbfe1e0	0.005855784
65	0x3d880150	0.06640875
66	0x3e0d394f	0.13791393
67	0xbd8382d5	-0.064214386
68	0x3d8d5ec8	0.06902844
69	0xbe0b360e	-0.13594839
70	0x3dfd85be	0.12379025
71	0x3ddaaa8c	0.106770605
72	0xbd0e7c40	-0.034786463
73	0x3e0f8f83	0.14019589
74	0xbe035c2d	-0.12828131
75	0xbc1886c0	-0.009309471
76	0x3d0f04f8	0.034916848
77	0x3def7e62	0.116940275
78	0xbd8acd30	-0.06777418
79	0x3da34b66	0.079733655
80	0x3d1dfc0c	0.03857045
81	0x3d097048	0.033554345
82	0x3dffe78a	0.124953344
83	0x3bc7a880	0.006093085
84	0xbd2c08b8	-0.042000502
85	0xbdfac47c	-0.12244508
86	0x3e08f3d9	0.1337427
87	0xbd924fae	-0.07144104
88	0x3c9433f8	0.018091187
89	0x3de4bf6e	0.11169325
90	0x3d933a42	0.07188846
91	0xbdd6a96c	-0.104815334
92	0x3ce51058	0.027961895
93	0xbd966c62	-0.07344891
94	0xbe0dddc5	-0.1385413
95	0x3d37b52c	0.044850513
96	0xbdce4328	-0.10071403
97	0xbc91ca4c	-0.017796658
98	0xbdc7322c	-0.097263664
99	0x3dbb69de	0.09151052

layers.6.bias f4 [2]
0	0x3db84a5c	0.08998558
1	0x3d16192c	0.0366451
